{"format": "graph-model", "generatedBy": "2.18.0", "convertedBy": "TensorFlow.js Converter v4.22.0", "signature": {"outputs": {"Identity:0": {"name": "Identity:0"}}}, "modelTopology": {"node": [{"name": "ConstantFolding/model_41/tf.math.divide_2/truediv_recip", "op": "Const", "attr": {"value": {"tensor": {"dtype": "DT_FLOAT", "tensorShape": {"dim": [{"size": "1"}, {"size": "1"}, {"size": "1"}]}}}, "dtype": {"type": "DT_FLOAT"}}}, {"name": "model_41/39371", "op": "Const", "attr": {"dtype": {"type": "DT_FLOAT"}, "value": {"tensor": {"dtype": "DT_FLOAT", "tensorShape": {"dim": [{"size": "1"}, {"size": "2"}, {"size": "8400"}]}}}}}, {"name": "model_41/tf.strided_slice_59/ones_like/tensor", "op": "Const", "attr": {"dtype": {"type": "DT_INT64"}, "value": {"tensor": {"dtype": "DT_INT64", "tensorShape": {"dim": [{"size": "3"}]}}}}}, {"name": "model_41/tf.strided_slice_59/StridedSlice/end", "op": "Const", "attr": {"value": {"tensor": {"dtype": "DT_INT64", "tensorShape": {"dim": [{"size": "3"}]}}}, "dtype": {"type": "DT_INT64"}}}, {"name": "model_41/tf.strided_slice_59/ones_like", "op": "Const", "attr": {"value": {"tensor": {"dtype": "DT_INT64", "tensorShape": {"dim": [{"size": "3"}]}}}, "dtype": {"type": "DT_INT64"}}}, {"name": "model_41/39374", "op": "Const", "attr": {"value": {"tensor": {"dtype": "DT_FLOAT", "tensorShape": {"dim": [{"size": "1"}, {"size": "2"}, {"size": "8400"}]}}}, "dtype": {"type": "DT_FLOAT"}}}, {"name": "model_41/tf.strided_slice_56/StridedSlice/begin", "op": "Const", "attr": {"dtype": {"type": "DT_INT64"}, "value": {"tensor": {"dtype": "DT_INT64", "tensorShape": {"dim": [{"size": "3"}]}}}}}, {"name": "model_41/tf.strided_slice_56/StridedSlice/end", "op": "Const", "attr": {"dtype": {"type": "DT_INT64"}, "value": {"tensor": {"dtype": "DT_INT64", "tensorShape": {"dim": [{"size": "3"}]}}}}}, {"name": "model_41/tf.strided_slice_56/StridedSlice/strides", "op": "Const", "attr": {"value": {"tensor": {"dtype": "DT_INT64", "tensorShape": {"dim": [{"size": "3"}]}}}, "dtype": {"type": "DT_INT64"}}}, {"name": "model_41/tf.reshape_41/Reshape/shape", "op": "Const", "attr": {"value": {"tensor": {"dtype": "DT_INT32", "tensorShape": {"dim": [{"size": "4"}]}}}, "dtype": {"type": "DT_INT32"}}}, {"name": "model_41/tf.compat.v1.transpose_75/transpose/perm", "op": "Const", "attr": {"value": {"tensor": {"dtype": "DT_INT32", "tensorShape": {"dim": [{"size": "4"}]}}}, "dtype": {"type": "DT_INT32"}}}, {"name": "model_41/tf.compat.v1.transpose_76/transpose/perm", "op": "Const", "attr": {"dtype": {"type": "DT_INT32"}, "value": {"tensor": {"dtype": "DT_INT32", "tensorShape": {"dim": [{"size": "4"}]}}}}}, {"name": "model_41/tf.nn.convolution_191/convolution/filter", "op": "Const", "attr": {"value": {"tensor": {"dtype": "DT_FLOAT", "tensorShape": {"dim": [{"size": "1"}, {"size": "1"}, {"size": "16"}, {"size": "1"}]}}}, "dtype": {"type": "DT_FLOAT"}}}, {"name": "model_41/tf.compat.v1.transpose_81/transpose/perm", "op": "Const", "attr": {"dtype": {"type": "DT_INT32"}, "value": {"tensor": {"dtype": "DT_INT32", "tensorShape": {"dim": [{"size": "4"}]}}}}}, {"name": "model_41/tf.reshape_44/Reshape/shape", "op": "Const", "attr": {"value": {"tensor": {"dtype": "DT_INT32", "tensorShape": {"dim": [{"size": "3"}]}}}, "dtype": {"type": "DT_INT32"}}}, {"name": "model_41/tf.strided_slice_58/ones_like/tensor", "op": "Const", "attr": {"dtype": {"type": "DT_INT64"}, "value": {"tensor": {"dtype": "DT_INT64", "tensorShape": {"dim": [{"size": "3"}]}}}}}, {"name": "model_41/tf.strided_slice_58/StridedSlice/end", "op": "Const", "attr": {"value": {"tensor": {"dtype": "DT_INT64", "tensorShape": {"dim": [{"size": "3"}]}}}, "dtype": {"type": "DT_INT64"}}}, {"name": "model_41/tf.strided_slice_58/ones_like", "op": "Const", "attr": {"dtype": {"type": "DT_INT64"}, "value": {"tensor": {"dtype": "DT_INT64", "tensorShape": {"dim": [{"size": "3"}]}}}}}, {"name": "model_41/tf.concat_64/concat/axis", "op": "Const", "attr": {"value": {"tensor": {"dtype": "DT_INT32", "tensorShape": {}}}, "dtype": {"type": "DT_INT32"}}}, {"name": "model_41/tf.math.multiply_758/Mul/y", "op": "Const", "attr": {"value": {"tensor": {"dtype": "DT_FLOAT", "tensorShape": {"dim": [{"size": "1"}, {"size": "1"}, {"size": "8400"}]}}}, "dtype": {"type": "DT_FLOAT"}}}, {"name": "model_41/tf.nn.convolution_164/convolution/filter", "op": "Const", "attr": {"value": {"tensor": {"dtype": "DT_FLOAT", "tensorShape": {"dim": [{"size": "3"}, {"size": "3"}, {"size": "64"}, {"size": "64"}]}}}, "dtype": {"type": "DT_FLOAT"}}}, {"name": "model_41/tf.math.add_202/Add/y", "op": "Const", "attr": {"value": {"tensor": {"dtype": "DT_FLOAT", "tensorShape": {"dim": [{"size": "64"}]}}}, "dtype": {"type": "DT_FLOAT"}}}, {"name": "model_41/tf.nn.convolution_166/convolution/filter", "op": "Const", "attr": {"dtype": {"type": "DT_FLOAT"}, "value": {"tensor": {"dtype": "DT_FLOAT", "tensorShape": {"dim": [{"size": "3"}, {"size": "3"}, {"size": "64"}, {"size": "64"}]}}}}}, {"name": "model_41/tf.math.add_204/Add/y", "op": "Const", "attr": {"dtype": {"type": "DT_FLOAT"}, "value": {"tensor": {"dtype": "DT_FLOAT", "tensorShape": {"dim": [{"size": "64"}]}}}}}, {"name": "model_41/tf.nn.convolution_169/convolution/filter", "op": "Const", "attr": {"value": {"tensor": {"dtype": "DT_FLOAT", "tensorShape": {"dim": [{"size": "1"}, {"size": "1"}, {"size": "64"}, {"size": "64"}]}}}, "dtype": {"type": "DT_FLOAT"}}}, {"name": "model_41/tf.math.add_207/Add/y", "op": "Const", "attr": {"value": {"tensor": {"dtype": "DT_FLOAT", "tensorShape": {"dim": [{"size": "64"}]}}}, "dtype": {"type": "DT_FLOAT"}}}, {"name": "model_41/tf.nn.convolution_165/convolution/filter", "op": "Const", "attr": {"dtype": {"type": "DT_FLOAT"}, "value": {"tensor": {"dtype": "DT_FLOAT", "tensorShape": {"dim": [{"size": "3"}, {"size": "3"}, {"size": "64"}, {"size": "64"}]}}}}}, {"name": "model_41/tf.math.add_203/Add/y", "op": "Const", "attr": {"dtype": {"type": "DT_FLOAT"}, "value": {"tensor": {"dtype": "DT_FLOAT", "tensorShape": {"dim": [{"size": "64"}]}}}}}, {"name": "model_41/tf.nn.convolution_167/convolution/filter", "op": "Const", "attr": {"value": {"tensor": {"dtype": "DT_FLOAT", "tensorShape": {"dim": [{"size": "3"}, {"size": "3"}, {"size": "64"}, {"size": "64"}]}}}, "dtype": {"type": "DT_FLOAT"}}}, {"name": "model_41/tf.math.add_205/Add/y", "op": "Const", "attr": {"dtype": {"type": "DT_FLOAT"}, "value": {"tensor": {"dtype": "DT_FLOAT", "tensorShape": {"dim": [{"size": "64"}]}}}}}, {"name": "model_41/tf.nn.convolution_170/convolution/filter", "op": "Const", "attr": {"dtype": {"type": "DT_FLOAT"}, "value": {"tensor": {"dtype": "DT_FLOAT", "tensorShape": {"dim": [{"size": "1"}, {"size": "1"}, {"size": "64"}, {"size": "50"}]}}}}}, {"name": "model_41/tf.math.add_208/Add/y", "op": "Const", "attr": {"value": {"tensor": {"dtype": "DT_FLOAT", "tensorShape": {"dim": [{"size": "50"}]}}}, "dtype": {"type": "DT_FLOAT"}}}, {"name": "model_41/tf.concat_54/concat/axis", "op": "Const", "attr": {"dtype": {"type": "DT_INT32"}, "value": {"tensor": {"dtype": "DT_INT32", "tensorShape": {}}}}}, {"name": "model_41/tf.compat.v1.transpose_58/transpose/perm", "op": "Const", "attr": {"value": {"tensor": {"dtype": "DT_INT32", "tensorShape": {"dim": [{"size": "4"}]}}}, "dtype": {"type": "DT_INT32"}}}, {"name": "model_41/tf.reshape_32/Reshape/shape", "op": "Const", "attr": {"value": {"tensor": {"dtype": "DT_INT32", "tensorShape": {"dim": [{"size": "3"}]}}}, "dtype": {"type": "DT_INT32"}}}, {"name": "model_41/tf.nn.convolution_175/convolution/filter", "op": "Const", "attr": {"dtype": {"type": "DT_FLOAT"}, "value": {"tensor": {"dtype": "DT_FLOAT", "tensorShape": {"dim": [{"size": "3"}, {"size": "3"}, {"size": "128"}, {"size": "64"}]}}}}}, {"name": "model_41/tf.math.add_213/Add/y", "op": "Const", "attr": {"value": {"tensor": {"dtype": "DT_FLOAT", "tensorShape": {"dim": [{"size": "64"}]}}}, "dtype": {"type": "DT_FLOAT"}}}, {"name": "model_41/tf.nn.convolution_177/convolution/filter", "op": "Const", "attr": {"value": {"tensor": {"dtype": "DT_FLOAT", "tensorShape": {"dim": [{"size": "3"}, {"size": "3"}, {"size": "64"}, {"size": "64"}]}}}, "dtype": {"type": "DT_FLOAT"}}}, {"name": "model_41/tf.math.add_215/Add/y", "op": "Const", "attr": {"value": {"tensor": {"dtype": "DT_FLOAT", "tensorShape": {"dim": [{"size": "64"}]}}}, "dtype": {"type": "DT_FLOAT"}}}, {"name": "model_41/tf.nn.convolution_180/convolution/filter", "op": "Const", "attr": {"value": {"tensor": {"dtype": "DT_FLOAT", "tensorShape": {"dim": [{"size": "1"}, {"size": "1"}, {"size": "64"}, {"size": "64"}]}}}, "dtype": {"type": "DT_FLOAT"}}}, {"name": "model_41/tf.math.add_218/Add/y", "op": "Const", "attr": {"dtype": {"type": "DT_FLOAT"}, "value": {"tensor": {"dtype": "DT_FLOAT", "tensorShape": {"dim": [{"size": "64"}]}}}}}, {"name": "model_41/tf.nn.convolution_176/convolution/filter", "op": "Const", "attr": {"value": {"tensor": {"dtype": "DT_FLOAT", "tensorShape": {"dim": [{"size": "3"}, {"size": "3"}, {"size": "128"}, {"size": "64"}]}}}, "dtype": {"type": "DT_FLOAT"}}}, {"name": "model_41/tf.math.add_214/Add/y", "op": "Const", "attr": {"dtype": {"type": "DT_FLOAT"}, "value": {"tensor": {"dtype": "DT_FLOAT", "tensorShape": {"dim": [{"size": "64"}]}}}}}, {"name": "model_41/tf.nn.convolution_178/convolution/filter", "op": "Const", "attr": {"dtype": {"type": "DT_FLOAT"}, "value": {"tensor": {"dtype": "DT_FLOAT", "tensorShape": {"dim": [{"size": "3"}, {"size": "3"}, {"size": "64"}, {"size": "64"}]}}}}}, {"name": "model_41/tf.math.add_216/Add/y", "op": "Const", "attr": {"value": {"tensor": {"dtype": "DT_FLOAT", "tensorShape": {"dim": [{"size": "64"}]}}}, "dtype": {"type": "DT_FLOAT"}}}, {"name": "model_41/tf.nn.convolution_181/convolution/filter", "op": "Const", "attr": {"dtype": {"type": "DT_FLOAT"}, "value": {"tensor": {"dtype": "DT_FLOAT", "tensorShape": {"dim": [{"size": "1"}, {"size": "1"}, {"size": "64"}, {"size": "50"}]}}}}}, {"name": "model_41/tf.math.add_219/Add/y", "op": "Const", "attr": {"value": {"tensor": {"dtype": "DT_FLOAT", "tensorShape": {"dim": [{"size": "50"}]}}}, "dtype": {"type": "DT_FLOAT"}}}, {"name": "model_41/tf.concat_57/concat/axis", "op": "Const", "attr": {"value": {"tensor": {"dtype": "DT_INT32", "tensorShape": {}}}, "dtype": {"type": "DT_INT32"}}}, {"name": "model_41/tf.compat.v1.transpose_63/transpose/perm", "op": "Const", "attr": {"dtype": {"type": "DT_INT32"}, "value": {"tensor": {"dtype": "DT_INT32", "tensorShape": {"dim": [{"size": "4"}]}}}}}, {"name": "model_41/tf.reshape_35/Reshape/shape", "op": "Const", "attr": {"dtype": {"type": "DT_INT32"}, "value": {"tensor": {"dtype": "DT_INT32", "tensorShape": {"dim": [{"size": "3"}]}}}}}, {"name": "model_41/tf.nn.convolution_185/convolution/filter", "op": "Const", "attr": {"value": {"tensor": {"dtype": "DT_FLOAT", "tensorShape": {"dim": [{"size": "3"}, {"size": "3"}, {"size": "256"}, {"size": "64"}]}}}, "dtype": {"type": "DT_FLOAT"}}}, {"name": "model_41/tf.math.add_223/Add/y", "op": "Const", "attr": {"dtype": {"type": "DT_FLOAT"}, "value": {"tensor": {"dtype": "DT_FLOAT", "tensorShape": {"dim": [{"size": "64"}]}}}}}, {"name": "model_41/tf.nn.convolution_187/convolution/filter", "op": "Const", "attr": {"dtype": {"type": "DT_FLOAT"}, "value": {"tensor": {"dtype": "DT_FLOAT", "tensorShape": {"dim": [{"size": "3"}, {"size": "3"}, {"size": "64"}, {"size": "64"}]}}}}}, {"name": "model_41/tf.math.add_225/Add/y", "op": "Const", "attr": {"dtype": {"type": "DT_FLOAT"}, "value": {"tensor": {"dtype": "DT_FLOAT", "tensorShape": {"dim": [{"size": "64"}]}}}}}, {"name": "model_41/tf.nn.convolution_189/convolution/filter", "op": "Const", "attr": {"dtype": {"type": "DT_FLOAT"}, "value": {"tensor": {"dtype": "DT_FLOAT", "tensorShape": {"dim": [{"size": "1"}, {"size": "1"}, {"size": "64"}, {"size": "64"}]}}}}}, {"name": "model_41/tf.math.add_227/Add/y", "op": "Const", "attr": {"dtype": {"type": "DT_FLOAT"}, "value": {"tensor": {"dtype": "DT_FLOAT", "tensorShape": {"dim": [{"size": "64"}]}}}}}, {"name": "model_41/tf.strided_slice_54/ones_like/tensor", "op": "Const", "attr": {"value": {"tensor": {"dtype": "DT_INT64", "tensorShape": {"dim": [{"size": "4"}]}}}, "dtype": {"type": "DT_INT64"}}}, {"name": "model_41/tf.strided_slice_54/StridedSlice/end", "op": "Const", "attr": {"dtype": {"type": "DT_INT64"}, "value": {"tensor": {"dtype": "DT_INT64", "tensorShape": {"dim": [{"size": "4"}]}}}}}, {"name": "model_41/tf.strided_slice_54/ones_like", "op": "Const", "attr": {"dtype": {"type": "DT_INT64"}, "value": {"tensor": {"dtype": "DT_INT64", "tensorShape": {"dim": [{"size": "4"}]}}}}}, {"name": "model_41/tf.strided_slice_52/ones_like/tensor", "op": "Const", "attr": {"value": {"tensor": {"dtype": "DT_INT64", "tensorShape": {"dim": [{"size": "4"}]}}}, "dtype": {"type": "DT_INT64"}}}, {"name": "model_41/tf.strided_slice_52/StridedSlice/end", "op": "Const", "attr": {"value": {"tensor": {"dtype": "DT_INT64", "tensorShape": {"dim": [{"size": "4"}]}}}, "dtype": {"type": "DT_INT64"}}}, {"name": "model_41/tf.strided_slice_52/ones_like", "op": "Const", "attr": {"dtype": {"type": "DT_INT64"}, "value": {"tensor": {"dtype": "DT_INT64", "tensorShape": {"dim": [{"size": "4"}]}}}}}, {"name": "model_41/tf.strided_slice_50/ones_like/tensor", "op": "Const", "attr": {"value": {"tensor": {"dtype": "DT_INT64", "tensorShape": {"dim": [{"size": "4"}]}}}, "dtype": {"type": "DT_INT64"}}}, {"name": "model_41/tf.strided_slice_50/StridedSlice/end", "op": "Const", "attr": {"dtype": {"type": "DT_INT64"}, "value": {"tensor": {"dtype": "DT_INT64", "tensorShape": {"dim": [{"size": "4"}]}}}}}, {"name": "model_41/tf.strided_slice_50/ones_like", "op": "Const", "attr": {"value": {"tensor": {"dtype": "DT_INT64", "tensorShape": {"dim": [{"size": "4"}]}}}, "dtype": {"type": "DT_INT64"}}}, {"name": "model_41/tf.image.resize_5/resize/size", "op": "Const", "attr": {"dtype": {"type": "DT_INT32"}, "value": {"tensor": {"dtype": "DT_INT32", "tensorShape": {"dim": [{"size": "2"}]}}}}}, {"name": "model_41/tf.concat_51/concat/axis", "op": "Const", "attr": {"dtype": {"type": "DT_INT32"}, "value": {"tensor": {"dtype": "DT_INT32", "tensorShape": {}}}}}, {"name": "model_41/tf.nn.convolution_159/convolution/filter", "op": "Const", "attr": {"dtype": {"type": "DT_FLOAT"}, "value": {"tensor": {"dtype": "DT_FLOAT", "tensorShape": {"dim": [{"size": "1"}, {"size": "1"}, {"size": "192"}, {"size": "64"}]}}}}}, {"name": "model_41/tf.math.add_197/Add/y", "op": "Const", "attr": {"dtype": {"type": "DT_FLOAT"}, "value": {"tensor": {"dtype": "DT_FLOAT", "tensorShape": {"dim": [{"size": "64"}]}}}}}, {"name": "model_41/tf.strided_slice_51/ones_like/tensor", "op": "Const", "attr": {"value": {"tensor": {"dtype": "DT_INT64", "tensorShape": {"dim": [{"size": "4"}]}}}, "dtype": {"type": "DT_INT64"}}}, {"name": "model_41/tf.strided_slice_51/StridedSlice/end", "op": "Const", "attr": {"value": {"tensor": {"dtype": "DT_INT64", "tensorShape": {"dim": [{"size": "4"}]}}}, "dtype": {"type": "DT_INT64"}}}, {"name": "model_41/tf.strided_slice_51/ones_like", "op": "Const", "attr": {"value": {"tensor": {"dtype": "DT_INT64", "tensorShape": {"dim": [{"size": "4"}]}}}, "dtype": {"type": "DT_INT64"}}}, {"name": "model_41/tf.nn.convolution_160/convolution/filter", "op": "Const", "attr": {"dtype": {"type": "DT_FLOAT"}, "value": {"tensor": {"dtype": "DT_FLOAT", "tensorShape": {"dim": [{"size": "3"}, {"size": "3"}, {"size": "32"}, {"size": "32"}]}}}}}, {"name": "model_41/tf.math.add_198/Add/y", "op": "Const", "attr": {"dtype": {"type": "DT_FLOAT"}, "value": {"tensor": {"dtype": "DT_FLOAT", "tensorShape": {"dim": [{"size": "32"}]}}}}}, {"name": "model_41/tf.nn.convolution_161/convolution/filter", "op": "Const", "attr": {"value": {"tensor": {"dtype": "DT_FLOAT", "tensorShape": {"dim": [{"size": "3"}, {"size": "3"}, {"size": "32"}, {"size": "32"}]}}}, "dtype": {"type": "DT_FLOAT"}}}, {"name": "model_41/tf.math.add_199/Add/y", "op": "Const", "attr": {"value": {"tensor": {"dtype": "DT_FLOAT", "tensorShape": {"dim": [{"size": "32"}]}}}, "dtype": {"type": "DT_FLOAT"}}}, {"name": "model_41/tf.concat_52/concat/axis", "op": "Const", "attr": {"dtype": {"type": "DT_INT32"}, "value": {"tensor": {"dtype": "DT_INT32", "tensorShape": {}}}}}, {"name": "model_41/tf.nn.convolution_162/convolution/filter", "op": "Const", "attr": {"value": {"tensor": {"dtype": "DT_FLOAT", "tensorShape": {"dim": [{"size": "1"}, {"size": "1"}, {"size": "96"}, {"size": "64"}]}}}, "dtype": {"type": "DT_FLOAT"}}}, {"name": "model_41/tf.math.add_200/Add/y", "op": "Const", "attr": {"value": {"tensor": {"dtype": "DT_FLOAT", "tensorShape": {"dim": [{"size": "64"}]}}}, "dtype": {"type": "DT_FLOAT"}}}, {"name": "model_41/tf.compat.v1.pad_19/Pad/paddings", "op": "Const", "attr": {"dtype": {"type": "DT_INT32"}, "value": {"tensor": {"dtype": "DT_INT32", "tensorShape": {"dim": [{"size": "4"}, {"size": "2"}]}}}}}, {"name": "model_41/tf.nn.convolution_163/convolution/filter", "op": "Const", "attr": {"dtype": {"type": "DT_FLOAT"}, "value": {"tensor": {"dtype": "DT_FLOAT", "tensorShape": {"dim": [{"size": "3"}, {"size": "3"}, {"size": "64"}, {"size": "64"}]}}}}}, {"name": "model_41/tf.math.add_201/Add/y", "op": "Const", "attr": {"value": {"tensor": {"dtype": "DT_FLOAT", "tensorShape": {"dim": [{"size": "64"}]}}}, "dtype": {"type": "DT_FLOAT"}}}, {"name": "model_41/tf.strided_slice_48/ones_like/tensor", "op": "Const", "attr": {"value": {"tensor": {"dtype": "DT_INT64", "tensorShape": {"dim": [{"size": "4"}]}}}, "dtype": {"type": "DT_INT64"}}}, {"name": "model_41/tf.strided_slice_48/StridedSlice/end", "op": "Const", "attr": {"value": {"tensor": {"dtype": "DT_INT64", "tensorShape": {"dim": [{"size": "4"}]}}}, "dtype": {"type": "DT_INT64"}}}, {"name": "model_41/tf.strided_slice_48/ones_like", "op": "Const", "attr": {"dtype": {"type": "DT_INT64"}, "value": {"tensor": {"dtype": "DT_INT64", "tensorShape": {"dim": [{"size": "4"}]}}}}}, {"name": "model_41/tf.image.resize_4/resize/size", "op": "Const", "attr": {"value": {"tensor": {"dtype": "DT_INT32", "tensorShape": {"dim": [{"size": "2"}]}}}, "dtype": {"type": "DT_INT32"}}}, {"name": "model_41/tf.concat_49/concat/axis", "op": "Const", "attr": {"dtype": {"type": "DT_INT32"}, "value": {"tensor": {"dtype": "DT_INT32", "tensorShape": {}}}}}, {"name": "model_41/tf.nn.convolution_155/convolution/filter", "op": "Const", "attr": {"dtype": {"type": "DT_FLOAT"}, "value": {"tensor": {"dtype": "DT_FLOAT", "tensorShape": {"dim": [{"size": "1"}, {"size": "1"}, {"size": "384"}, {"size": "128"}]}}}}}, {"name": "model_41/tf.math.add_193/Add/y", "op": "Const", "attr": {"value": {"tensor": {"dtype": "DT_FLOAT", "tensorShape": {"dim": [{"size": "128"}]}}}, "dtype": {"type": "DT_FLOAT"}}}, {"name": "model_41/tf.strided_slice_49/ones_like/tensor", "op": "Const", "attr": {"dtype": {"type": "DT_INT64"}, "value": {"tensor": {"dtype": "DT_INT64", "tensorShape": {"dim": [{"size": "4"}]}}}}}, {"name": "model_41/tf.strided_slice_49/StridedSlice/end", "op": "Const", "attr": {"dtype": {"type": "DT_INT64"}, "value": {"tensor": {"dtype": "DT_INT64", "tensorShape": {"dim": [{"size": "4"}]}}}}}, {"name": "model_41/tf.strided_slice_49/ones_like", "op": "Const", "attr": {"dtype": {"type": "DT_INT64"}, "value": {"tensor": {"dtype": "DT_INT64", "tensorShape": {"dim": [{"size": "4"}]}}}}}, {"name": "model_41/tf.nn.convolution_156/convolution/filter", "op": "Const", "attr": {"dtype": {"type": "DT_FLOAT"}, "value": {"tensor": {"dtype": "DT_FLOAT", "tensorShape": {"dim": [{"size": "3"}, {"size": "3"}, {"size": "64"}, {"size": "64"}]}}}}}, {"name": "model_41/tf.math.add_194/Add/y", "op": "Const", "attr": {"value": {"tensor": {"dtype": "DT_FLOAT", "tensorShape": {"dim": [{"size": "64"}]}}}, "dtype": {"type": "DT_FLOAT"}}}, {"name": "model_41/tf.nn.convolution_157/convolution/filter", "op": "Const", "attr": {"value": {"tensor": {"dtype": "DT_FLOAT", "tensorShape": {"dim": [{"size": "3"}, {"size": "3"}, {"size": "64"}, {"size": "64"}]}}}, "dtype": {"type": "DT_FLOAT"}}}, {"name": "model_41/tf.math.add_195/Add/y", "op": "Const", "attr": {"value": {"tensor": {"dtype": "DT_FLOAT", "tensorShape": {"dim": [{"size": "64"}]}}}, "dtype": {"type": "DT_FLOAT"}}}, {"name": "model_41/tf.concat_50/concat/axis", "op": "Const", "attr": {"value": {"tensor": {"dtype": "DT_INT32", "tensorShape": {}}}, "dtype": {"type": "DT_INT32"}}}, {"name": "model_41/tf.nn.convolution_158/convolution/filter", "op": "Const", "attr": {"dtype": {"type": "DT_FLOAT"}, "value": {"tensor": {"dtype": "DT_FLOAT", "tensorShape": {"dim": [{"size": "1"}, {"size": "1"}, {"size": "192"}, {"size": "128"}]}}}}}, {"name": "model_41/tf.math.add_196/Add/y", "op": "Const", "attr": {"value": {"tensor": {"dtype": "DT_FLOAT", "tensorShape": {"dim": [{"size": "128"}]}}}, "dtype": {"type": "DT_FLOAT"}}}, {"name": "model_41/tf.concat_53/concat/axis", "op": "Const", "attr": {"value": {"tensor": {"dtype": "DT_INT32", "tensorShape": {}}}, "dtype": {"type": "DT_INT32"}}}, {"name": "model_41/tf.nn.convolution_168/convolution/filter", "op": "Const", "attr": {"value": {"tensor": {"dtype": "DT_FLOAT", "tensorShape": {"dim": [{"size": "1"}, {"size": "1"}, {"size": "192"}, {"size": "128"}]}}}, "dtype": {"type": "DT_FLOAT"}}}, {"name": "model_41/tf.math.add_206/Add/y", "op": "Const", "attr": {"dtype": {"type": "DT_FLOAT"}, "value": {"tensor": {"dtype": "DT_FLOAT", "tensorShape": {"dim": [{"size": "128"}]}}}}}, {"name": "model_41/tf.strided_slice_53/ones_like/tensor", "op": "Const", "attr": {"value": {"tensor": {"dtype": "DT_INT64", "tensorShape": {"dim": [{"size": "4"}]}}}, "dtype": {"type": "DT_INT64"}}}, {"name": "model_41/tf.strided_slice_53/StridedSlice/end", "op": "Const", "attr": {"dtype": {"type": "DT_INT64"}, "value": {"tensor": {"dtype": "DT_INT64", "tensorShape": {"dim": [{"size": "4"}]}}}}}, {"name": "model_41/tf.strided_slice_53/ones_like", "op": "Const", "attr": {"value": {"tensor": {"dtype": "DT_INT64", "tensorShape": {"dim": [{"size": "4"}]}}}, "dtype": {"type": "DT_INT64"}}}, {"name": "model_41/tf.nn.convolution_171/convolution/filter", "op": "Const", "attr": {"dtype": {"type": "DT_FLOAT"}, "value": {"tensor": {"dtype": "DT_FLOAT", "tensorShape": {"dim": [{"size": "3"}, {"size": "3"}, {"size": "64"}, {"size": "64"}]}}}}}, {"name": "model_41/tf.math.add_209/Add/y", "op": "Const", "attr": {"value": {"tensor": {"dtype": "DT_FLOAT", "tensorShape": {"dim": [{"size": "64"}]}}}, "dtype": {"type": "DT_FLOAT"}}}, {"name": "model_41/tf.nn.convolution_172/convolution/filter", "op": "Const", "attr": {"dtype": {"type": "DT_FLOAT"}, "value": {"tensor": {"dtype": "DT_FLOAT", "tensorShape": {"dim": [{"size": "3"}, {"size": "3"}, {"size": "64"}, {"size": "64"}]}}}}}, {"name": "model_41/tf.math.add_210/Add/y", "op": "Const", "attr": {"value": {"tensor": {"dtype": "DT_FLOAT", "tensorShape": {"dim": [{"size": "64"}]}}}, "dtype": {"type": "DT_FLOAT"}}}, {"name": "model_41/tf.concat_55/concat/axis", "op": "Const", "attr": {"value": {"tensor": {"dtype": "DT_INT32", "tensorShape": {}}}, "dtype": {"type": "DT_INT32"}}}, {"name": "model_41/tf.nn.convolution_173/convolution/filter", "op": "Const", "attr": {"dtype": {"type": "DT_FLOAT"}, "value": {"tensor": {"dtype": "DT_FLOAT", "tensorShape": {"dim": [{"size": "1"}, {"size": "1"}, {"size": "192"}, {"size": "128"}]}}}}}, {"name": "model_41/tf.math.add_211/Add/y", "op": "Const", "attr": {"dtype": {"type": "DT_FLOAT"}, "value": {"tensor": {"dtype": "DT_FLOAT", "tensorShape": {"dim": [{"size": "128"}]}}}}}, {"name": "model_41/tf.compat.v1.pad_20/Pad/paddings", "op": "Const", "attr": {"dtype": {"type": "DT_INT32"}, "value": {"tensor": {"dtype": "DT_INT32", "tensorShape": {"dim": [{"size": "4"}, {"size": "2"}]}}}}}, {"name": "model_41/tf.nn.convolution_174/convolution/filter", "op": "Const", "attr": {"value": {"tensor": {"dtype": "DT_FLOAT", "tensorShape": {"dim": [{"size": "3"}, {"size": "3"}, {"size": "128"}, {"size": "128"}]}}}, "dtype": {"type": "DT_FLOAT"}}}, {"name": "model_41/tf.math.add_212/Add/y", "op": "Const", "attr": {"value": {"tensor": {"dtype": "DT_FLOAT", "tensorShape": {"dim": [{"size": "128"}]}}}, "dtype": {"type": "DT_FLOAT"}}}, {"name": "model_41/tf.strided_slice_46/ones_like/tensor", "op": "Const", "attr": {"value": {"tensor": {"dtype": "DT_INT64", "tensorShape": {"dim": [{"size": "4"}]}}}, "dtype": {"type": "DT_INT64"}}}, {"name": "model_41/tf.strided_slice_46/StridedSlice/end", "op": "Const", "attr": {"value": {"tensor": {"dtype": "DT_INT64", "tensorShape": {"dim": [{"size": "4"}]}}}, "dtype": {"type": "DT_INT64"}}}, {"name": "model_41/tf.strided_slice_46/ones_like", "op": "Const", "attr": {"dtype": {"type": "DT_INT64"}, "value": {"tensor": {"dtype": "DT_INT64", "tensorShape": {"dim": [{"size": "4"}]}}}}}, {"name": "model_41/tf.strided_slice_44/ones_like/tensor", "op": "Const", "attr": {"value": {"tensor": {"dtype": "DT_INT64", "tensorShape": {"dim": [{"size": "4"}]}}}, "dtype": {"type": "DT_INT64"}}}, {"name": "model_41/tf.strided_slice_44/StridedSlice/end", "op": "Const", "attr": {"value": {"tensor": {"dtype": "DT_INT64", "tensorShape": {"dim": [{"size": "4"}]}}}, "dtype": {"type": "DT_INT64"}}}, {"name": "model_41/tf.strided_slice_44/ones_like", "op": "Const", "attr": {"dtype": {"type": "DT_INT64"}, "value": {"tensor": {"dtype": "DT_INT64", "tensorShape": {"dim": [{"size": "4"}]}}}}}, {"name": "model_41/tf.strided_slice_42/ones_like/tensor", "op": "Const", "attr": {"value": {"tensor": {"dtype": "DT_INT64", "tensorShape": {"dim": [{"size": "4"}]}}}, "dtype": {"type": "DT_INT64"}}}, {"name": "model_41/tf.strided_slice_42/StridedSlice/end", "op": "Const", "attr": {"dtype": {"type": "DT_INT64"}, "value": {"tensor": {"dtype": "DT_INT64", "tensorShape": {"dim": [{"size": "4"}]}}}}}, {"name": "model_41/tf.strided_slice_42/ones_like", "op": "Const", "attr": {"value": {"tensor": {"dtype": "DT_INT64", "tensorShape": {"dim": [{"size": "4"}]}}}, "dtype": {"type": "DT_INT64"}}}, {"name": "model_41/tf.strided_slice_40/ones_like/tensor", "op": "Const", "attr": {"value": {"tensor": {"dtype": "DT_INT64", "tensorShape": {"dim": [{"size": "4"}]}}}, "dtype": {"type": "DT_INT64"}}}, {"name": "model_41/tf.strided_slice_40/StridedSlice/end", "op": "Const", "attr": {"dtype": {"type": "DT_INT64"}, "value": {"tensor": {"dtype": "DT_INT64", "tensorShape": {"dim": [{"size": "4"}]}}}}}, {"name": "model_41/tf.strided_slice_40/ones_like", "op": "Const", "attr": {"dtype": {"type": "DT_INT64"}, "value": {"tensor": {"dtype": "DT_INT64", "tensorShape": {"dim": [{"size": "4"}]}}}}}, {"name": "model_41/tf.compat.v1.pad_14/Pad/paddings", "op": "Const", "attr": {"value": {"tensor": {"dtype": "DT_INT32", "tensorShape": {"dim": [{"size": "4"}, {"size": "2"}]}}}, "dtype": {"type": "DT_INT32"}}}, {"name": "model_41/tf.nn.convolution_128/convolution/filter", "op": "Const", "attr": {"value": {"tensor": {"dtype": "DT_FLOAT", "tensorShape": {"dim": [{"size": "3"}, {"size": "3"}, {"size": "3"}, {"size": "16"}]}}}, "dtype": {"type": "DT_FLOAT"}}}, {"name": "model_41/tf.math.add_154/Add/y", "op": "Const", "attr": {"dtype": {"type": "DT_FLOAT"}, "value": {"tensor": {"dtype": "DT_FLOAT", "tensorShape": {"dim": [{"size": "16"}]}}}}}, {"name": "model_41/tf.compat.v1.pad_15/Pad/paddings", "op": "Const", "attr": {"dtype": {"type": "DT_INT32"}, "value": {"tensor": {"dtype": "DT_INT32", "tensorShape": {"dim": [{"size": "4"}, {"size": "2"}]}}}}}, {"name": "model_41/tf.nn.convolution_129/convolution/filter", "op": "Const", "attr": {"value": {"tensor": {"dtype": "DT_FLOAT", "tensorShape": {"dim": [{"size": "3"}, {"size": "3"}, {"size": "16"}, {"size": "32"}]}}}, "dtype": {"type": "DT_FLOAT"}}}, {"name": "model_41/tf.math.add_155/Add/y", "op": "Const", "attr": {"dtype": {"type": "DT_FLOAT"}, "value": {"tensor": {"dtype": "DT_FLOAT", "tensorShape": {"dim": [{"size": "32"}]}}}}}, {"name": "model_41/tf.nn.convolution_130/convolution/filter", "op": "Const", "attr": {"dtype": {"type": "DT_FLOAT"}, "value": {"tensor": {"dtype": "DT_FLOAT", "tensorShape": {"dim": [{"size": "1"}, {"size": "1"}, {"size": "32"}, {"size": "32"}]}}}}}, {"name": "model_41/tf.math.add_156/Add/y", "op": "Const", "attr": {"value": {"tensor": {"dtype": "DT_FLOAT", "tensorShape": {"dim": [{"size": "32"}]}}}, "dtype": {"type": "DT_FLOAT"}}}, {"name": "model_41/tf.strided_slice_41/ones_like/tensor", "op": "Const", "attr": {"dtype": {"type": "DT_INT64"}, "value": {"tensor": {"dtype": "DT_INT64", "tensorShape": {"dim": [{"size": "4"}]}}}}}, {"name": "model_41/tf.strided_slice_41/StridedSlice/end", "op": "Const", "attr": {"value": {"tensor": {"dtype": "DT_INT64", "tensorShape": {"dim": [{"size": "4"}]}}}, "dtype": {"type": "DT_INT64"}}}, {"name": "model_41/tf.strided_slice_41/ones_like", "op": "Const", "attr": {"dtype": {"type": "DT_INT64"}, "value": {"tensor": {"dtype": "DT_INT64", "tensorShape": {"dim": [{"size": "4"}]}}}}}, {"name": "model_41/tf.nn.convolution_131/convolution/filter", "op": "Const", "attr": {"value": {"tensor": {"dtype": "DT_FLOAT", "tensorShape": {"dim": [{"size": "3"}, {"size": "3"}, {"size": "16"}, {"size": "16"}]}}}, "dtype": {"type": "DT_FLOAT"}}}, {"name": "model_41/tf.math.add_157/Add/y", "op": "Const", "attr": {"value": {"tensor": {"dtype": "DT_FLOAT", "tensorShape": {"dim": [{"size": "16"}]}}}, "dtype": {"type": "DT_FLOAT"}}}, {"name": "model_41/tf.nn.convolution_132/convolution/filter", "op": "Const", "attr": {"value": {"tensor": {"dtype": "DT_FLOAT", "tensorShape": {"dim": [{"size": "3"}, {"size": "3"}, {"size": "16"}, {"size": "16"}]}}}, "dtype": {"type": "DT_FLOAT"}}}, {"name": "model_41/tf.math.add_158/Add/y", "op": "Const", "attr": {"value": {"tensor": {"dtype": "DT_FLOAT", "tensorShape": {"dim": [{"size": "16"}]}}}, "dtype": {"type": "DT_FLOAT"}}}, {"name": "model_41/tf.concat_44/concat/axis", "op": "Const", "attr": {"value": {"tensor": {"dtype": "DT_INT32", "tensorShape": {}}}, "dtype": {"type": "DT_INT32"}}}, {"name": "model_41/tf.nn.convolution_133/convolution/filter", "op": "Const", "attr": {"dtype": {"type": "DT_FLOAT"}, "value": {"tensor": {"dtype": "DT_FLOAT", "tensorShape": {"dim": [{"size": "1"}, {"size": "1"}, {"size": "48"}, {"size": "32"}]}}}}}, {"name": "model_41/tf.math.add_161/Add/y", "op": "Const", "attr": {"value": {"tensor": {"dtype": "DT_FLOAT", "tensorShape": {"dim": [{"size": "32"}]}}}, "dtype": {"type": "DT_FLOAT"}}}, {"name": "model_41/tf.compat.v1.pad_16/Pad/paddings", "op": "Const", "attr": {"value": {"tensor": {"dtype": "DT_INT32", "tensorShape": {"dim": [{"size": "4"}, {"size": "2"}]}}}, "dtype": {"type": "DT_INT32"}}}, {"name": "model_41/tf.nn.convolution_134/convolution/filter", "op": "Const", "attr": {"value": {"tensor": {"dtype": "DT_FLOAT", "tensorShape": {"dim": [{"size": "3"}, {"size": "3"}, {"size": "32"}, {"size": "64"}]}}}, "dtype": {"type": "DT_FLOAT"}}}, {"name": "model_41/tf.math.add_162/Add/y", "op": "Const", "attr": {"dtype": {"type": "DT_FLOAT"}, "value": {"tensor": {"dtype": "DT_FLOAT", "tensorShape": {"dim": [{"size": "64"}]}}}}}, {"name": "model_41/tf.nn.convolution_135/convolution/filter", "op": "Const", "attr": {"dtype": {"type": "DT_FLOAT"}, "value": {"tensor": {"dtype": "DT_FLOAT", "tensorShape": {"dim": [{"size": "1"}, {"size": "1"}, {"size": "64"}, {"size": "64"}]}}}}}, {"name": "model_41/tf.math.add_163/Add/y", "op": "Const", "attr": {"value": {"tensor": {"dtype": "DT_FLOAT", "tensorShape": {"dim": [{"size": "64"}]}}}, "dtype": {"type": "DT_FLOAT"}}}, {"name": "model_41/tf.strided_slice_43/ones_like/tensor", "op": "Const", "attr": {"value": {"tensor": {"dtype": "DT_INT64", "tensorShape": {"dim": [{"size": "4"}]}}}, "dtype": {"type": "DT_INT64"}}}, {"name": "model_41/tf.strided_slice_43/StridedSlice/end", "op": "Const", "attr": {"dtype": {"type": "DT_INT64"}, "value": {"tensor": {"dtype": "DT_INT64", "tensorShape": {"dim": [{"size": "4"}]}}}}}, {"name": "model_41/tf.strided_slice_43/ones_like", "op": "Const", "attr": {"dtype": {"type": "DT_INT64"}, "value": {"tensor": {"dtype": "DT_INT64", "tensorShape": {"dim": [{"size": "4"}]}}}}}, {"name": "model_41/tf.nn.convolution_136/convolution/filter", "op": "Const", "attr": {"dtype": {"type": "DT_FLOAT"}, "value": {"tensor": {"dtype": "DT_FLOAT", "tensorShape": {"dim": [{"size": "3"}, {"size": "3"}, {"size": "32"}, {"size": "32"}]}}}}}, {"name": "model_41/tf.math.add_164/Add/y", "op": "Const", "attr": {"dtype": {"type": "DT_FLOAT"}, "value": {"tensor": {"dtype": "DT_FLOAT", "tensorShape": {"dim": [{"size": "32"}]}}}}}, {"name": "model_41/tf.nn.convolution_137/convolution/filter", "op": "Const", "attr": {"dtype": {"type": "DT_FLOAT"}, "value": {"tensor": {"dtype": "DT_FLOAT", "tensorShape": {"dim": [{"size": "3"}, {"size": "3"}, {"size": "32"}, {"size": "32"}]}}}}}, {"name": "model_41/tf.math.add_165/Add/y", "op": "Const", "attr": {"value": {"tensor": {"dtype": "DT_FLOAT", "tensorShape": {"dim": [{"size": "32"}]}}}, "dtype": {"type": "DT_FLOAT"}}}, {"name": "model_41/tf.nn.convolution_138/convolution/filter", "op": "Const", "attr": {"value": {"tensor": {"dtype": "DT_FLOAT", "tensorShape": {"dim": [{"size": "3"}, {"size": "3"}, {"size": "32"}, {"size": "32"}]}}}, "dtype": {"type": "DT_FLOAT"}}}, {"name": "model_41/tf.math.add_168/Add/y", "op": "Const", "attr": {"value": {"tensor": {"dtype": "DT_FLOAT", "tensorShape": {"dim": [{"size": "32"}]}}}, "dtype": {"type": "DT_FLOAT"}}}, {"name": "model_41/tf.nn.convolution_139/convolution/filter", "op": "Const", "attr": {"dtype": {"type": "DT_FLOAT"}, "value": {"tensor": {"dtype": "DT_FLOAT", "tensorShape": {"dim": [{"size": "3"}, {"size": "3"}, {"size": "32"}, {"size": "32"}]}}}}}, {"name": "model_41/tf.math.add_169/Add/y", "op": "Const", "attr": {"dtype": {"type": "DT_FLOAT"}, "value": {"tensor": {"dtype": "DT_FLOAT", "tensorShape": {"dim": [{"size": "32"}]}}}}}, {"name": "model_41/tf.concat_45/concat/axis", "op": "Const", "attr": {"dtype": {"type": "DT_INT32"}, "value": {"tensor": {"dtype": "DT_INT32", "tensorShape": {}}}}}, {"name": "model_41/tf.nn.convolution_140/convolution/filter", "op": "Const", "attr": {"dtype": {"type": "DT_FLOAT"}, "value": {"tensor": {"dtype": "DT_FLOAT", "tensorShape": {"dim": [{"size": "1"}, {"size": "1"}, {"size": "128"}, {"size": "64"}]}}}}}, {"name": "model_41/tf.math.add_172/Add/y", "op": "Const", "attr": {"value": {"tensor": {"dtype": "DT_FLOAT", "tensorShape": {"dim": [{"size": "64"}]}}}, "dtype": {"type": "DT_FLOAT"}}}, {"name": "model_41/tf.compat.v1.pad_17/Pad/paddings", "op": "Const", "attr": {"dtype": {"type": "DT_INT32"}, "value": {"tensor": {"dtype": "DT_INT32", "tensorShape": {"dim": [{"size": "4"}, {"size": "2"}]}}}}}, {"name": "model_41/tf.nn.convolution_141/convolution/filter", "op": "Const", "attr": {"value": {"tensor": {"dtype": "DT_FLOAT", "tensorShape": {"dim": [{"size": "3"}, {"size": "3"}, {"size": "64"}, {"size": "128"}]}}}, "dtype": {"type": "DT_FLOAT"}}}, {"name": "model_41/tf.math.add_173/Add/y", "op": "Const", "attr": {"dtype": {"type": "DT_FLOAT"}, "value": {"tensor": {"dtype": "DT_FLOAT", "tensorShape": {"dim": [{"size": "128"}]}}}}}, {"name": "model_41/tf.nn.convolution_142/convolution/filter", "op": "Const", "attr": {"dtype": {"type": "DT_FLOAT"}, "value": {"tensor": {"dtype": "DT_FLOAT", "tensorShape": {"dim": [{"size": "1"}, {"size": "1"}, {"size": "128"}, {"size": "128"}]}}}}}, {"name": "model_41/tf.math.add_174/Add/y", "op": "Const", "attr": {"value": {"tensor": {"dtype": "DT_FLOAT", "tensorShape": {"dim": [{"size": "128"}]}}}, "dtype": {"type": "DT_FLOAT"}}}, {"name": "model_41/tf.strided_slice_45/ones_like/tensor", "op": "Const", "attr": {"value": {"tensor": {"dtype": "DT_INT64", "tensorShape": {"dim": [{"size": "4"}]}}}, "dtype": {"type": "DT_INT64"}}}, {"name": "model_41/tf.strided_slice_45/StridedSlice/end", "op": "Const", "attr": {"value": {"tensor": {"dtype": "DT_INT64", "tensorShape": {"dim": [{"size": "4"}]}}}, "dtype": {"type": "DT_INT64"}}}, {"name": "model_41/tf.strided_slice_45/ones_like", "op": "Const", "attr": {"dtype": {"type": "DT_INT64"}, "value": {"tensor": {"dtype": "DT_INT64", "tensorShape": {"dim": [{"size": "4"}]}}}}}, {"name": "model_41/tf.nn.convolution_143/convolution/filter", "op": "Const", "attr": {"dtype": {"type": "DT_FLOAT"}, "value": {"tensor": {"dtype": "DT_FLOAT", "tensorShape": {"dim": [{"size": "3"}, {"size": "3"}, {"size": "64"}, {"size": "64"}]}}}}}, {"name": "model_41/tf.math.add_175/Add/y", "op": "Const", "attr": {"dtype": {"type": "DT_FLOAT"}, "value": {"tensor": {"dtype": "DT_FLOAT", "tensorShape": {"dim": [{"size": "64"}]}}}}}, {"name": "model_41/tf.nn.convolution_144/convolution/filter", "op": "Const", "attr": {"dtype": {"type": "DT_FLOAT"}, "value": {"tensor": {"dtype": "DT_FLOAT", "tensorShape": {"dim": [{"size": "3"}, {"size": "3"}, {"size": "64"}, {"size": "64"}]}}}}}, {"name": "model_41/tf.math.add_176/Add/y", "op": "Const", "attr": {"dtype": {"type": "DT_FLOAT"}, "value": {"tensor": {"dtype": "DT_FLOAT", "tensorShape": {"dim": [{"size": "64"}]}}}}}, {"name": "model_41/tf.nn.convolution_145/convolution/filter", "op": "Const", "attr": {"dtype": {"type": "DT_FLOAT"}, "value": {"tensor": {"dtype": "DT_FLOAT", "tensorShape": {"dim": [{"size": "3"}, {"size": "3"}, {"size": "64"}, {"size": "64"}]}}}}}, {"name": "model_41/tf.math.add_179/Add/y", "op": "Const", "attr": {"dtype": {"type": "DT_FLOAT"}, "value": {"tensor": {"dtype": "DT_FLOAT", "tensorShape": {"dim": [{"size": "64"}]}}}}}, {"name": "model_41/tf.nn.convolution_146/convolution/filter", "op": "Const", "attr": {"value": {"tensor": {"dtype": "DT_FLOAT", "tensorShape": {"dim": [{"size": "3"}, {"size": "3"}, {"size": "64"}, {"size": "64"}]}}}, "dtype": {"type": "DT_FLOAT"}}}, {"name": "model_41/tf.math.add_180/Add/y", "op": "Const", "attr": {"dtype": {"type": "DT_FLOAT"}, "value": {"tensor": {"dtype": "DT_FLOAT", "tensorShape": {"dim": [{"size": "64"}]}}}}}, {"name": "model_41/tf.concat_46/concat/axis", "op": "Const", "attr": {"value": {"tensor": {"dtype": "DT_INT32", "tensorShape": {}}}, "dtype": {"type": "DT_INT32"}}}, {"name": "model_41/tf.nn.convolution_147/convolution/filter", "op": "Const", "attr": {"value": {"tensor": {"dtype": "DT_FLOAT", "tensorShape": {"dim": [{"size": "1"}, {"size": "1"}, {"size": "256"}, {"size": "128"}]}}}, "dtype": {"type": "DT_FLOAT"}}}, {"name": "model_41/tf.math.add_183/Add/y", "op": "Const", "attr": {"value": {"tensor": {"dtype": "DT_FLOAT", "tensorShape": {"dim": [{"size": "128"}]}}}, "dtype": {"type": "DT_FLOAT"}}}, {"name": "model_41/tf.compat.v1.pad_18/Pad/paddings", "op": "Const", "attr": {"value": {"tensor": {"dtype": "DT_INT32", "tensorShape": {"dim": [{"size": "4"}, {"size": "2"}]}}}, "dtype": {"type": "DT_INT32"}}}, {"name": "model_41/tf.nn.convolution_148/convolution/filter", "op": "Const", "attr": {"value": {"tensor": {"dtype": "DT_FLOAT", "tensorShape": {"dim": [{"size": "3"}, {"size": "3"}, {"size": "128"}, {"size": "256"}]}}}, "dtype": {"type": "DT_FLOAT"}}}, {"name": "model_41/tf.math.add_184/Add/y", "op": "Const", "attr": {"value": {"tensor": {"dtype": "DT_FLOAT", "tensorShape": {"dim": [{"size": "256"}]}}}, "dtype": {"type": "DT_FLOAT"}}}, {"name": "model_41/tf.nn.convolution_149/convolution/filter", "op": "Const", "attr": {"dtype": {"type": "DT_FLOAT"}, "value": {"tensor": {"dtype": "DT_FLOAT", "tensorShape": {"dim": [{"size": "1"}, {"size": "1"}, {"size": "256"}, {"size": "256"}]}}}}}, {"name": "model_41/tf.math.add_185/Add/y", "op": "Const", "attr": {"value": {"tensor": {"dtype": "DT_FLOAT", "tensorShape": {"dim": [{"size": "256"}]}}}, "dtype": {"type": "DT_FLOAT"}}}, {"name": "model_41/tf.strided_slice_47/ones_like/tensor", "op": "Const", "attr": {"value": {"tensor": {"dtype": "DT_INT64", "tensorShape": {"dim": [{"size": "4"}]}}}, "dtype": {"type": "DT_INT64"}}}, {"name": "model_41/tf.strided_slice_47/StridedSlice/end", "op": "Const", "attr": {"value": {"tensor": {"dtype": "DT_INT64", "tensorShape": {"dim": [{"size": "4"}]}}}, "dtype": {"type": "DT_INT64"}}}, {"name": "model_41/tf.strided_slice_47/ones_like", "op": "Const", "attr": {"dtype": {"type": "DT_INT64"}, "value": {"tensor": {"dtype": "DT_INT64", "tensorShape": {"dim": [{"size": "4"}]}}}}}, {"name": "model_41/tf.nn.convolution_150/convolution/filter", "op": "Const", "attr": {"value": {"tensor": {"dtype": "DT_FLOAT", "tensorShape": {"dim": [{"size": "3"}, {"size": "3"}, {"size": "128"}, {"size": "128"}]}}}, "dtype": {"type": "DT_FLOAT"}}}, {"name": "model_41/tf.math.add_186/Add/y", "op": "Const", "attr": {"dtype": {"type": "DT_FLOAT"}, "value": {"tensor": {"dtype": "DT_FLOAT", "tensorShape": {"dim": [{"size": "128"}]}}}}}, {"name": "model_41/tf.nn.convolution_151/convolution/filter", "op": "Const", "attr": {"value": {"tensor": {"dtype": "DT_FLOAT", "tensorShape": {"dim": [{"size": "3"}, {"size": "3"}, {"size": "128"}, {"size": "128"}]}}}, "dtype": {"type": "DT_FLOAT"}}}, {"name": "model_41/tf.math.add_187/Add/y", "op": "Const", "attr": {"dtype": {"type": "DT_FLOAT"}, "value": {"tensor": {"dtype": "DT_FLOAT", "tensorShape": {"dim": [{"size": "128"}]}}}}}, {"name": "model_41/tf.concat_47/concat/axis", "op": "Const", "attr": {"value": {"tensor": {"dtype": "DT_INT32", "tensorShape": {}}}, "dtype": {"type": "DT_INT32"}}}, {"name": "model_41/tf.nn.convolution_152/convolution/filter", "op": "Const", "attr": {"dtype": {"type": "DT_FLOAT"}, "value": {"tensor": {"dtype": "DT_FLOAT", "tensorShape": {"dim": [{"size": "1"}, {"size": "1"}, {"size": "384"}, {"size": "256"}]}}}}}, {"name": "model_41/tf.math.add_190/Add/y", "op": "Const", "attr": {"value": {"tensor": {"dtype": "DT_FLOAT", "tensorShape": {"dim": [{"size": "256"}]}}}, "dtype": {"type": "DT_FLOAT"}}}, {"name": "model_41/tf.nn.convolution_153/convolution/filter", "op": "Const", "attr": {"dtype": {"type": "DT_FLOAT"}, "value": {"tensor": {"dtype": "DT_FLOAT", "tensorShape": {"dim": [{"size": "1"}, {"size": "1"}, {"size": "256"}, {"size": "128"}]}}}}}, {"name": "model_41/tf.math.add_191/Add/y", "op": "Const", "attr": {"dtype": {"type": "DT_FLOAT"}, "value": {"tensor": {"dtype": "DT_FLOAT", "tensorShape": {"dim": [{"size": "128"}]}}}}}, {"name": "model_41/tf.concat_48/concat/axis", "op": "Const", "attr": {"value": {"tensor": {"dtype": "DT_INT32", "tensorShape": {}}}, "dtype": {"type": "DT_INT32"}}}, {"name": "model_41/tf.nn.convolution_154/convolution/filter", "op": "Const", "attr": {"dtype": {"type": "DT_FLOAT"}, "value": {"tensor": {"dtype": "DT_FLOAT", "tensorShape": {"dim": [{"size": "1"}, {"size": "1"}, {"size": "512"}, {"size": "256"}]}}}}}, {"name": "model_41/tf.math.add_192/Add/y", "op": "Const", "attr": {"dtype": {"type": "DT_FLOAT"}, "value": {"tensor": {"dtype": "DT_FLOAT", "tensorShape": {"dim": [{"size": "256"}]}}}}}, {"name": "model_41/tf.concat_56/concat/axis", "op": "Const", "attr": {"dtype": {"type": "DT_INT32"}, "value": {"tensor": {"dtype": "DT_INT32", "tensorShape": {}}}}}, {"name": "model_41/tf.nn.convolution_179/convolution/filter", "op": "Const", "attr": {"value": {"tensor": {"dtype": "DT_FLOAT", "tensorShape": {"dim": [{"size": "1"}, {"size": "1"}, {"size": "384"}, {"size": "256"}]}}}, "dtype": {"type": "DT_FLOAT"}}}, {"name": "model_41/tf.math.add_217/Add/y", "op": "Const", "attr": {"value": {"tensor": {"dtype": "DT_FLOAT", "tensorShape": {"dim": [{"size": "256"}]}}}, "dtype": {"type": "DT_FLOAT"}}}, {"name": "model_41/tf.strided_slice_55/ones_like/tensor", "op": "Const", "attr": {"value": {"tensor": {"dtype": "DT_INT64", "tensorShape": {"dim": [{"size": "4"}]}}}, "dtype": {"type": "DT_INT64"}}}, {"name": "model_41/tf.strided_slice_55/StridedSlice/end", "op": "Const", "attr": {"value": {"tensor": {"dtype": "DT_INT64", "tensorShape": {"dim": [{"size": "4"}]}}}, "dtype": {"type": "DT_INT64"}}}, {"name": "model_41/tf.strided_slice_55/ones_like", "op": "Const", "attr": {"dtype": {"type": "DT_INT64"}, "value": {"tensor": {"dtype": "DT_INT64", "tensorShape": {"dim": [{"size": "4"}]}}}}}, {"name": "model_41/tf.nn.convolution_182/convolution/filter", "op": "Const", "attr": {"value": {"tensor": {"dtype": "DT_FLOAT", "tensorShape": {"dim": [{"size": "3"}, {"size": "3"}, {"size": "128"}, {"size": "128"}]}}}, "dtype": {"type": "DT_FLOAT"}}}, {"name": "model_41/tf.math.add_220/Add/y", "op": "Const", "attr": {"value": {"tensor": {"dtype": "DT_FLOAT", "tensorShape": {"dim": [{"size": "128"}]}}}, "dtype": {"type": "DT_FLOAT"}}}, {"name": "model_41/tf.nn.convolution_183/convolution/filter", "op": "Const", "attr": {"value": {"tensor": {"dtype": "DT_FLOAT", "tensorShape": {"dim": [{"size": "3"}, {"size": "3"}, {"size": "128"}, {"size": "128"}]}}}, "dtype": {"type": "DT_FLOAT"}}}, {"name": "model_41/tf.math.add_221/Add/y", "op": "Const", "attr": {"value": {"tensor": {"dtype": "DT_FLOAT", "tensorShape": {"dim": [{"size": "128"}]}}}, "dtype": {"type": "DT_FLOAT"}}}, {"name": "model_41/tf.concat_58/concat/axis", "op": "Const", "attr": {"dtype": {"type": "DT_INT32"}, "value": {"tensor": {"dtype": "DT_INT32", "tensorShape": {}}}}}, {"name": "model_41/tf.nn.convolution_184/convolution/filter", "op": "Const", "attr": {"value": {"tensor": {"dtype": "DT_FLOAT", "tensorShape": {"dim": [{"size": "1"}, {"size": "1"}, {"size": "384"}, {"size": "256"}]}}}, "dtype": {"type": "DT_FLOAT"}}}, {"name": "model_41/tf.math.add_222/Add/y", "op": "Const", "attr": {"value": {"tensor": {"dtype": "DT_FLOAT", "tensorShape": {"dim": [{"size": "256"}]}}}, "dtype": {"type": "DT_FLOAT"}}}, {"name": "model_41/tf.nn.convolution_186/convolution/filter", "op": "Const", "attr": {"dtype": {"type": "DT_FLOAT"}, "value": {"tensor": {"dtype": "DT_FLOAT", "tensorShape": {"dim": [{"size": "3"}, {"size": "3"}, {"size": "256"}, {"size": "64"}]}}}}}, {"name": "model_41/tf.math.add_224/Add/y", "op": "Const", "attr": {"value": {"tensor": {"dtype": "DT_FLOAT", "tensorShape": {"dim": [{"size": "64"}]}}}, "dtype": {"type": "DT_FLOAT"}}}, {"name": "model_41/tf.nn.convolution_188/convolution/filter", "op": "Const", "attr": {"dtype": {"type": "DT_FLOAT"}, "value": {"tensor": {"dtype": "DT_FLOAT", "tensorShape": {"dim": [{"size": "3"}, {"size": "3"}, {"size": "64"}, {"size": "64"}]}}}}}, {"name": "model_41/tf.math.add_226/Add/y", "op": "Const", "attr": {"value": {"tensor": {"dtype": "DT_FLOAT", "tensorShape": {"dim": [{"size": "64"}]}}}, "dtype": {"type": "DT_FLOAT"}}}, {"name": "model_41/tf.nn.convolution_190/convolution/filter", "op": "Const", "attr": {"value": {"tensor": {"dtype": "DT_FLOAT", "tensorShape": {"dim": [{"size": "1"}, {"size": "1"}, {"size": "64"}, {"size": "50"}]}}}, "dtype": {"type": "DT_FLOAT"}}}, {"name": "model_41/tf.math.add_228/Add/y", "op": "Const", "attr": {"value": {"tensor": {"dtype": "DT_FLOAT", "tensorShape": {"dim": [{"size": "50"}]}}}, "dtype": {"type": "DT_FLOAT"}}}, {"name": "model_41/tf.concat_59/concat/axis", "op": "Const", "attr": {"dtype": {"type": "DT_INT32"}, "value": {"tensor": {"dtype": "DT_INT32", "tensorShape": {}}}}}, {"name": "model_41/tf.compat.v1.transpose_68/transpose/perm", "op": "Const", "attr": {"dtype": {"type": "DT_INT32"}, "value": {"tensor": {"dtype": "DT_INT32", "tensorShape": {"dim": [{"size": "4"}]}}}}}, {"name": "model_41/tf.reshape_38/Reshape/shape", "op": "Const", "attr": {"dtype": {"type": "DT_INT32"}, "value": {"tensor": {"dtype": "DT_INT32", "tensorShape": {"dim": [{"size": "3"}]}}}}}, {"name": "model_41/tf.concat_60/concat/axis", "op": "Const", "attr": {"dtype": {"type": "DT_INT32"}, "value": {"tensor": {"dtype": "DT_INT32", "tensorShape": {}}}}}, {"name": "model_41/tf.strided_slice_57/StridedSlice/begin", "op": "Const", "attr": {"dtype": {"type": "DT_INT64"}, "value": {"tensor": {"dtype": "DT_INT64", "tensorShape": {"dim": [{"size": "3"}]}}}}}, {"name": "model_41/tf.strided_slice_57/StridedSlice/end", "op": "Const", "attr": {"dtype": {"type": "DT_INT64"}, "value": {"tensor": {"dtype": "DT_INT64", "tensorShape": {"dim": [{"size": "3"}]}}}}}, {"name": "model_41/tf.strided_slice_57/StridedSlice/strides", "op": "Const", "attr": {"dtype": {"type": "DT_INT64"}, "value": {"tensor": {"dtype": "DT_INT64", "tensorShape": {"dim": [{"size": "3"}]}}}}}, {"name": "model_41/output0/concat/axis", "op": "Const", "attr": {"value": {"tensor": {"dtype": "DT_INT32", "tensorShape": {}}}, "dtype": {"type": "DT_INT32"}}}, {"name": "x", "op": "Placeholder", "attr": {"shape": {"shape": {"dim": [{"size": "1"}, {"size": "640"}, {"size": "640"}, {"size": "3"}]}}, "dtype": {"type": "DT_FLOAT"}}}, {"name": "model_41/tf.compat.v1.pad_14/Pad", "op": "Pad", "input": ["x", "model_41/tf.compat.v1.pad_14/Pad/paddings"], "attr": {"Tpaddings": {"type": "DT_INT32"}, "T": {"type": "DT_FLOAT"}}}, {"name": "model_41/tf.math.add_154/Add", "op": "_FusedConv2D", "input": ["model_41/tf.compat.v1.pad_14/Pad", "model_41/tf.nn.convolution_128/convolution/filter", "model_41/tf.math.add_154/Add/y"], "device": "/device:CPU:0", "attr": {"explicit_paddings": {"list": {}}, "use_cudnn_on_gpu": {"b": true}, "epsilon": {"f": 0.0}, "num_host_args": {"i": "0"}, "dilations": {"list": {"i": ["1", "1", "1", "1"]}}, "num_args": {"i": "1"}, "fused_ops": {"list": {"s": ["Qmlhc0FkZA=="]}}, "data_format": {"s": "TkhXQw=="}, "filter_format": {"s": "SFdJTw=="}, "strides": {"list": {"i": ["1", "2", "2", "1"]}}, "T": {"type": "DT_FLOAT"}, "TArgs": {"list": {"type": ["DT_FLOAT"]}}, "padding": {"s": "VkFMSUQ="}, "leakyrelu_alpha": {"f": 0.2}}}, {"name": "model_41/tf.math.sigmoid_116/Sigmoid", "op": "Sigmoid", "input": ["model_41/tf.math.add_154/Add"], "attr": {"T": {"type": "DT_FLOAT"}}}, {"name": "model_41/tf.math.multiply_509/Mul", "op": "Mul", "input": ["model_41/tf.math.add_154/Add", "model_41/tf.math.sigmoid_116/Sigmoid"], "attr": {"T": {"type": "DT_FLOAT"}}}, {"name": "model_41/tf.compat.v1.pad_15/Pad", "op": "Pad", "input": ["model_41/tf.math.multiply_509/Mul", "model_41/tf.compat.v1.pad_15/Pad/paddings"], "attr": {"Tpaddings": {"type": "DT_INT32"}, "T": {"type": "DT_FLOAT"}}}, {"name": "model_41/tf.math.add_155/Add", "op": "_FusedConv2D", "input": ["model_41/tf.compat.v1.pad_15/Pad", "model_41/tf.nn.convolution_129/convolution/filter", "model_41/tf.math.add_155/Add/y"], "device": "/device:CPU:0", "attr": {"epsilon": {"f": 0.0}, "dilations": {"list": {"i": ["1", "1", "1", "1"]}}, "data_format": {"s": "TkhXQw=="}, "leakyrelu_alpha": {"f": 0.2}, "explicit_paddings": {"list": {}}, "T": {"type": "DT_FLOAT"}, "num_host_args": {"i": "0"}, "TArgs": {"list": {"type": ["DT_FLOAT"]}}, "padding": {"s": "VkFMSUQ="}, "strides": {"list": {"i": ["1", "2", "2", "1"]}}, "fused_ops": {"list": {"s": ["Qmlhc0FkZA=="]}}, "num_args": {"i": "1"}, "filter_format": {"s": "SFdJTw=="}, "use_cudnn_on_gpu": {"b": true}}}, {"name": "model_41/tf.math.sigmoid_117/Sigmoid", "op": "Sigmoid", "input": ["model_41/tf.math.add_155/Add"], "attr": {"T": {"type": "DT_FLOAT"}}}, {"name": "model_41/tf.math.multiply_513/Mul", "op": "Mul", "input": ["model_41/tf.math.add_155/Add", "model_41/tf.math.sigmoid_117/Sigmoid"], "attr": {"T": {"type": "DT_FLOAT"}}}, {"name": "model_41/tf.math.add_156/Add", "op": "_FusedConv2D", "input": ["model_41/tf.math.multiply_513/Mul", "model_41/tf.nn.convolution_130/convolution/filter", "model_41/tf.math.add_156/Add/y"], "device": "/device:CPU:0", "attr": {"padding": {"s": "U0FNRQ=="}, "epsilon": {"f": 0.0}, "TArgs": {"list": {"type": ["DT_FLOAT"]}}, "T": {"type": "DT_FLOAT"}, "dilations": {"list": {"i": ["1", "1", "1", "1"]}}, "num_host_args": {"i": "0"}, "num_args": {"i": "1"}, "strides": {"list": {"i": ["1", "1", "1", "1"]}}, "fused_ops": {"list": {"s": ["Qmlhc0FkZA=="]}}, "filter_format": {"s": "SFdJTw=="}, "leakyrelu_alpha": {"f": 0.2}, "use_cudnn_on_gpu": {"b": true}, "explicit_paddings": {"list": {}}, "data_format": {"s": "TkhXQw=="}}}, {"name": "model_41/tf.math.sigmoid_118/Sigmoid", "op": "Sigmoid", "input": ["model_41/tf.math.add_156/Add"], "attr": {"T": {"type": "DT_FLOAT"}}}, {"name": "model_41/tf.math.multiply_517/Mul", "op": "Mul", "input": ["model_41/tf.math.add_156/Add", "model_41/tf.math.sigmoid_118/Sigmoid"], "attr": {"T": {"type": "DT_FLOAT"}}}, {"name": "model_41/tf.strided_slice_40/StridedSlice", "op": "StridedSlice", "input": ["model_41/tf.math.multiply_517/Mul", "model_41/tf.strided_slice_40/ones_like/tensor", "model_41/tf.strided_slice_40/StridedSlice/end", "model_41/tf.strided_slice_40/ones_like"], "attr": {"new_axis_mask": {"i": "0"}, "end_mask": {"i": "7"}, "Index": {"type": "DT_INT64"}, "T": {"type": "DT_FLOAT"}, "ellipsis_mask": {"i": "0"}, "begin_mask": {"i": "15"}, "shrink_axis_mask": {"i": "0"}}}, {"name": "model_41/tf.strided_slice_41/StridedSlice", "op": "StridedSlice", "input": ["model_41/tf.math.multiply_517/Mul", "model_41/tf.strided_slice_41/ones_like/tensor", "model_41/tf.strided_slice_41/StridedSlice/end", "model_41/tf.strided_slice_41/ones_like"], "attr": {"new_axis_mask": {"i": "0"}, "Index": {"type": "DT_INT64"}, "ellipsis_mask": {"i": "0"}, "shrink_axis_mask": {"i": "0"}, "begin_mask": {"i": "7"}, "T": {"type": "DT_FLOAT"}, "end_mask": {"i": "7"}}}, {"name": "model_41/tf.math.add_157/Add", "op": "_FusedConv2D", "input": ["model_41/tf.strided_slice_41/StridedSlice", "model_41/tf.nn.convolution_131/convolution/filter", "model_41/tf.math.add_157/Add/y"], "device": "/device:CPU:0", "attr": {"padding": {"s": "U0FNRQ=="}, "strides": {"list": {"i": ["1", "1", "1", "1"]}}, "TArgs": {"list": {"type": ["DT_FLOAT"]}}, "data_format": {"s": "TkhXQw=="}, "num_args": {"i": "1"}, "use_cudnn_on_gpu": {"b": true}, "leakyrelu_alpha": {"f": 0.2}, "T": {"type": "DT_FLOAT"}, "num_host_args": {"i": "0"}, "dilations": {"list": {"i": ["1", "1", "1", "1"]}}, "fused_ops": {"list": {"s": ["Qmlhc0FkZA=="]}}, "epsilon": {"f": 0.0}, "explicit_paddings": {"list": {}}, "filter_format": {"s": "SFdJTw=="}}}, {"name": "model_41/tf.math.sigmoid_119/Sigmoid", "op": "Sigmoid", "input": ["model_41/tf.math.add_157/Add"], "attr": {"T": {"type": "DT_FLOAT"}}}, {"name": "model_41/tf.math.multiply_521/Mul", "op": "Mul", "input": ["model_41/tf.math.add_157/Add", "model_41/tf.math.sigmoid_119/Sigmoid"], "attr": {"T": {"type": "DT_FLOAT"}}}, {"name": "model_41/tf.math.add_158/Add", "op": "_FusedConv2D", "input": ["model_41/tf.math.multiply_521/Mul", "model_41/tf.nn.convolution_132/convolution/filter", "model_41/tf.math.add_158/Add/y"], "device": "/device:CPU:0", "attr": {"TArgs": {"list": {"type": ["DT_FLOAT"]}}, "use_cudnn_on_gpu": {"b": true}, "T": {"type": "DT_FLOAT"}, "leakyrelu_alpha": {"f": 0.2}, "fused_ops": {"list": {"s": ["Qmlhc0FkZA=="]}}, "dilations": {"list": {"i": ["1", "1", "1", "1"]}}, "num_args": {"i": "1"}, "padding": {"s": "U0FNRQ=="}, "data_format": {"s": "TkhXQw=="}, "explicit_paddings": {"list": {}}, "epsilon": {"f": 0.0}, "strides": {"list": {"i": ["1", "1", "1", "1"]}}, "num_host_args": {"i": "0"}, "filter_format": {"s": "SFdJTw=="}}}, {"name": "model_41/tf.math.sigmoid_120/Sigmoid", "op": "Sigmoid", "input": ["model_41/tf.math.add_158/Add"], "attr": {"T": {"type": "DT_FLOAT"}}}, {"name": "model_41/tf.math.multiply_525/Mul", "op": "Mul", "input": ["model_41/tf.math.add_158/Add", "model_41/tf.math.sigmoid_120/Sigmoid"], "attr": {"T": {"type": "DT_FLOAT"}}}, {"name": "model_41/tf.math.add_160/Add", "op": "AddV2", "input": ["model_41/tf.strided_slice_41/StridedSlice", "model_41/tf.math.multiply_525/Mul"], "attr": {"T": {"type": "DT_FLOAT"}}}, {"name": "model_41/tf.concat_44/concat", "op": "ConcatV2", "input": ["model_41/tf.strided_slice_40/StridedSlice", "model_41/tf.strided_slice_41/StridedSlice", "model_41/tf.math.add_160/Add", "model_41/tf.concat_44/concat/axis"], "attr": {"N": {"i": "3"}, "T": {"type": "DT_FLOAT"}, "Tidx": {"type": "DT_INT32"}}}, {"name": "model_41/tf.math.add_161/Add", "op": "_FusedConv2D", "input": ["model_41/tf.concat_44/concat", "model_41/tf.nn.convolution_133/convolution/filter", "model_41/tf.math.add_161/Add/y"], "device": "/device:CPU:0", "attr": {"leakyrelu_alpha": {"f": 0.2}, "TArgs": {"list": {"type": ["DT_FLOAT"]}}, "epsilon": {"f": 0.0}, "padding": {"s": "U0FNRQ=="}, "num_host_args": {"i": "0"}, "use_cudnn_on_gpu": {"b": true}, "dilations": {"list": {"i": ["1", "1", "1", "1"]}}, "fused_ops": {"list": {"s": ["Qmlhc0FkZA=="]}}, "explicit_paddings": {"list": {}}, "strides": {"list": {"i": ["1", "1", "1", "1"]}}, "data_format": {"s": "TkhXQw=="}, "T": {"type": "DT_FLOAT"}, "filter_format": {"s": "SFdJTw=="}, "num_args": {"i": "1"}}}, {"name": "model_41/tf.math.sigmoid_121/Sigmoid", "op": "Sigmoid", "input": ["model_41/tf.math.add_161/Add"], "attr": {"T": {"type": "DT_FLOAT"}}}, {"name": "model_41/tf.math.multiply_531/Mul", "op": "Mul", "input": ["model_41/tf.math.add_161/Add", "model_41/tf.math.sigmoid_121/Sigmoid"], "attr": {"T": {"type": "DT_FLOAT"}}}, {"name": "model_41/tf.compat.v1.pad_16/Pad", "op": "Pad", "input": ["model_41/tf.math.multiply_531/Mul", "model_41/tf.compat.v1.pad_16/Pad/paddings"], "attr": {"T": {"type": "DT_FLOAT"}, "Tpaddings": {"type": "DT_INT32"}}}, {"name": "model_41/tf.math.add_162/Add", "op": "_FusedConv2D", "input": ["model_41/tf.compat.v1.pad_16/Pad", "model_41/tf.nn.convolution_134/convolution/filter", "model_41/tf.math.add_162/Add/y"], "device": "/device:CPU:0", "attr": {"data_format": {"s": "TkhXQw=="}, "fused_ops": {"list": {"s": ["Qmlhc0FkZA=="]}}, "padding": {"s": "VkFMSUQ="}, "dilations": {"list": {"i": ["1", "1", "1", "1"]}}, "use_cudnn_on_gpu": {"b": true}, "explicit_paddings": {"list": {}}, "T": {"type": "DT_FLOAT"}, "strides": {"list": {"i": ["1", "2", "2", "1"]}}, "epsilon": {"f": 0.0}, "filter_format": {"s": "SFdJTw=="}, "leakyrelu_alpha": {"f": 0.2}, "TArgs": {"list": {"type": ["DT_FLOAT"]}}, "num_args": {"i": "1"}, "num_host_args": {"i": "0"}}}, {"name": "model_41/tf.math.sigmoid_122/Sigmoid", "op": "Sigmoid", "input": ["model_41/tf.math.add_162/Add"], "attr": {"T": {"type": "DT_FLOAT"}}}, {"name": "model_41/tf.math.multiply_535/Mul", "op": "Mul", "input": ["model_41/tf.math.add_162/Add", "model_41/tf.math.sigmoid_122/Sigmoid"], "attr": {"T": {"type": "DT_FLOAT"}}}, {"name": "model_41/tf.math.add_163/Add", "op": "_FusedConv2D", "input": ["model_41/tf.math.multiply_535/Mul", "model_41/tf.nn.convolution_135/convolution/filter", "model_41/tf.math.add_163/Add/y"], "device": "/device:CPU:0", "attr": {"TArgs": {"list": {"type": ["DT_FLOAT"]}}, "num_args": {"i": "1"}, "padding": {"s": "U0FNRQ=="}, "strides": {"list": {"i": ["1", "1", "1", "1"]}}, "leakyrelu_alpha": {"f": 0.2}, "dilations": {"list": {"i": ["1", "1", "1", "1"]}}, "explicit_paddings": {"list": {}}, "data_format": {"s": "TkhXQw=="}, "fused_ops": {"list": {"s": ["Qmlhc0FkZA=="]}}, "filter_format": {"s": "SFdJTw=="}, "epsilon": {"f": 0.0}, "num_host_args": {"i": "0"}, "use_cudnn_on_gpu": {"b": true}, "T": {"type": "DT_FLOAT"}}}, {"name": "model_41/tf.math.sigmoid_123/Sigmoid", "op": "Sigmoid", "input": ["model_41/tf.math.add_163/Add"], "attr": {"T": {"type": "DT_FLOAT"}}}, {"name": "model_41/tf.math.multiply_539/Mul", "op": "Mul", "input": ["model_41/tf.math.add_163/Add", "model_41/tf.math.sigmoid_123/Sigmoid"], "attr": {"T": {"type": "DT_FLOAT"}}}, {"name": "model_41/tf.strided_slice_42/StridedSlice", "op": "StridedSlice", "input": ["model_41/tf.math.multiply_539/Mul", "model_41/tf.strided_slice_42/ones_like/tensor", "model_41/tf.strided_slice_42/StridedSlice/end", "model_41/tf.strided_slice_42/ones_like"], "attr": {"shrink_axis_mask": {"i": "0"}, "Index": {"type": "DT_INT64"}, "end_mask": {"i": "7"}, "begin_mask": {"i": "15"}, "ellipsis_mask": {"i": "0"}, "new_axis_mask": {"i": "0"}, "T": {"type": "DT_FLOAT"}}}, {"name": "model_41/tf.strided_slice_43/StridedSlice", "op": "StridedSlice", "input": ["model_41/tf.math.multiply_539/Mul", "model_41/tf.strided_slice_43/ones_like/tensor", "model_41/tf.strided_slice_43/StridedSlice/end", "model_41/tf.strided_slice_43/ones_like"], "attr": {"begin_mask": {"i": "7"}, "ellipsis_mask": {"i": "0"}, "T": {"type": "DT_FLOAT"}, "new_axis_mask": {"i": "0"}, "end_mask": {"i": "7"}, "Index": {"type": "DT_INT64"}, "shrink_axis_mask": {"i": "0"}}}, {"name": "model_41/tf.math.add_164/Add", "op": "_FusedConv2D", "input": ["model_41/tf.strided_slice_43/StridedSlice", "model_41/tf.nn.convolution_136/convolution/filter", "model_41/tf.math.add_164/Add/y"], "device": "/device:CPU:0", "attr": {"fused_ops": {"list": {"s": ["Qmlhc0FkZA=="]}}, "num_host_args": {"i": "0"}, "explicit_paddings": {"list": {}}, "use_cudnn_on_gpu": {"b": true}, "num_args": {"i": "1"}, "epsilon": {"f": 0.0}, "filter_format": {"s": "SFdJTw=="}, "strides": {"list": {"i": ["1", "1", "1", "1"]}}, "padding": {"s": "U0FNRQ=="}, "T": {"type": "DT_FLOAT"}, "data_format": {"s": "TkhXQw=="}, "TArgs": {"list": {"type": ["DT_FLOAT"]}}, "dilations": {"list": {"i": ["1", "1", "1", "1"]}}, "leakyrelu_alpha": {"f": 0.2}}}, {"name": "model_41/tf.math.sigmoid_124/Sigmoid", "op": "Sigmoid", "input": ["model_41/tf.math.add_164/Add"], "attr": {"T": {"type": "DT_FLOAT"}}}, {"name": "model_41/tf.math.multiply_543/Mul", "op": "Mul", "input": ["model_41/tf.math.add_164/Add", "model_41/tf.math.sigmoid_124/Sigmoid"], "attr": {"T": {"type": "DT_FLOAT"}}}, {"name": "model_41/tf.math.add_165/Add", "op": "_FusedConv2D", "input": ["model_41/tf.math.multiply_543/Mul", "model_41/tf.nn.convolution_137/convolution/filter", "model_41/tf.math.add_165/Add/y"], "device": "/device:CPU:0", "attr": {"dilations": {"list": {"i": ["1", "1", "1", "1"]}}, "fused_ops": {"list": {"s": ["Qmlhc0FkZA=="]}}, "strides": {"list": {"i": ["1", "1", "1", "1"]}}, "padding": {"s": "U0FNRQ=="}, "epsilon": {"f": 0.0}, "data_format": {"s": "TkhXQw=="}, "num_args": {"i": "1"}, "TArgs": {"list": {"type": ["DT_FLOAT"]}}, "filter_format": {"s": "SFdJTw=="}, "use_cudnn_on_gpu": {"b": true}, "explicit_paddings": {"list": {}}, "num_host_args": {"i": "0"}, "leakyrelu_alpha": {"f": 0.2}, "T": {"type": "DT_FLOAT"}}}, {"name": "model_41/tf.math.sigmoid_125/Sigmoid", "op": "Sigmoid", "input": ["model_41/tf.math.add_165/Add"], "attr": {"T": {"type": "DT_FLOAT"}}}, {"name": "model_41/tf.math.multiply_547/Mul", "op": "Mul", "input": ["model_41/tf.math.add_165/Add", "model_41/tf.math.sigmoid_125/Sigmoid"], "attr": {"T": {"type": "DT_FLOAT"}}}, {"name": "model_41/tf.math.add_167/Add", "op": "AddV2", "input": ["model_41/tf.strided_slice_43/StridedSlice", "model_41/tf.math.multiply_547/Mul"], "attr": {"T": {"type": "DT_FLOAT"}}}, {"name": "model_41/tf.math.add_168/Add", "op": "_FusedConv2D", "input": ["model_41/tf.math.add_167/Add", "model_41/tf.nn.convolution_138/convolution/filter", "model_41/tf.math.add_168/Add/y"], "device": "/device:CPU:0", "attr": {"filter_format": {"s": "SFdJTw=="}, "epsilon": {"f": 0.0}, "TArgs": {"list": {"type": ["DT_FLOAT"]}}, "T": {"type": "DT_FLOAT"}, "num_args": {"i": "1"}, "fused_ops": {"list": {"s": ["Qmlhc0FkZA=="]}}, "dilations": {"list": {"i": ["1", "1", "1", "1"]}}, "strides": {"list": {"i": ["1", "1", "1", "1"]}}, "data_format": {"s": "TkhXQw=="}, "explicit_paddings": {"list": {}}, "leakyrelu_alpha": {"f": 0.2}, "padding": {"s": "U0FNRQ=="}, "use_cudnn_on_gpu": {"b": true}, "num_host_args": {"i": "0"}}}, {"name": "model_41/tf.math.sigmoid_126/Sigmoid", "op": "Sigmoid", "input": ["model_41/tf.math.add_168/Add"], "attr": {"T": {"type": "DT_FLOAT"}}}, {"name": "model_41/tf.math.multiply_553/Mul", "op": "Mul", "input": ["model_41/tf.math.add_168/Add", "model_41/tf.math.sigmoid_126/Sigmoid"], "attr": {"T": {"type": "DT_FLOAT"}}}, {"name": "model_41/tf.math.add_169/Add", "op": "_FusedConv2D", "input": ["model_41/tf.math.multiply_553/Mul", "model_41/tf.nn.convolution_139/convolution/filter", "model_41/tf.math.add_169/Add/y"], "device": "/device:CPU:0", "attr": {"dilations": {"list": {"i": ["1", "1", "1", "1"]}}, "num_args": {"i": "1"}, "strides": {"list": {"i": ["1", "1", "1", "1"]}}, "filter_format": {"s": "SFdJTw=="}, "explicit_paddings": {"list": {}}, "leakyrelu_alpha": {"f": 0.2}, "T": {"type": "DT_FLOAT"}, "num_host_args": {"i": "0"}, "epsilon": {"f": 0.0}, "fused_ops": {"list": {"s": ["Qmlhc0FkZA=="]}}, "data_format": {"s": "TkhXQw=="}, "padding": {"s": "U0FNRQ=="}, "TArgs": {"list": {"type": ["DT_FLOAT"]}}, "use_cudnn_on_gpu": {"b": true}}}, {"name": "model_41/tf.math.sigmoid_127/Sigmoid", "op": "Sigmoid", "input": ["model_41/tf.math.add_169/Add"], "attr": {"T": {"type": "DT_FLOAT"}}}, {"name": "model_41/tf.math.multiply_557/Mul", "op": "Mul", "input": ["model_41/tf.math.add_169/Add", "model_41/tf.math.sigmoid_127/Sigmoid"], "attr": {"T": {"type": "DT_FLOAT"}}}, {"name": "model_41/tf.math.add_171/Add", "op": "AddV2", "input": ["model_41/tf.math.add_167/Add", "model_41/tf.math.multiply_557/Mul"], "attr": {"T": {"type": "DT_FLOAT"}}}, {"name": "model_41/tf.concat_45/concat", "op": "ConcatV2", "input": ["model_41/tf.strided_slice_42/StridedSlice", "model_41/tf.strided_slice_43/StridedSlice", "model_41/tf.math.add_167/Add", "model_41/tf.math.add_171/Add", "model_41/tf.concat_45/concat/axis"], "attr": {"Tidx": {"type": "DT_INT32"}, "T": {"type": "DT_FLOAT"}, "N": {"i": "4"}}}, {"name": "model_41/tf.math.add_172/Add", "op": "_FusedConv2D", "input": ["model_41/tf.concat_45/concat", "model_41/tf.nn.convolution_140/convolution/filter", "model_41/tf.math.add_172/Add/y"], "device": "/device:CPU:0", "attr": {"num_args": {"i": "1"}, "epsilon": {"f": 0.0}, "use_cudnn_on_gpu": {"b": true}, "T": {"type": "DT_FLOAT"}, "strides": {"list": {"i": ["1", "1", "1", "1"]}}, "num_host_args": {"i": "0"}, "dilations": {"list": {"i": ["1", "1", "1", "1"]}}, "padding": {"s": "U0FNRQ=="}, "TArgs": {"list": {"type": ["DT_FLOAT"]}}, "filter_format": {"s": "SFdJTw=="}, "data_format": {"s": "TkhXQw=="}, "leakyrelu_alpha": {"f": 0.2}, "explicit_paddings": {"list": {}}, "fused_ops": {"list": {"s": ["Qmlhc0FkZA=="]}}}}, {"name": "model_41/tf.math.sigmoid_128/Sigmoid", "op": "Sigmoid", "input": ["model_41/tf.math.add_172/Add"], "attr": {"T": {"type": "DT_FLOAT"}}}, {"name": "model_41/tf.math.multiply_563/Mul", "op": "Mul", "input": ["model_41/tf.math.add_172/Add", "model_41/tf.math.sigmoid_128/Sigmoid"], "attr": {"T": {"type": "DT_FLOAT"}}}, {"name": "model_41/tf.compat.v1.pad_17/Pad", "op": "Pad", "input": ["model_41/tf.math.multiply_563/Mul", "model_41/tf.compat.v1.pad_17/Pad/paddings"], "attr": {"Tpaddings": {"type": "DT_INT32"}, "T": {"type": "DT_FLOAT"}}}, {"name": "model_41/tf.math.add_173/Add", "op": "_FusedConv2D", "input": ["model_41/tf.compat.v1.pad_17/Pad", "model_41/tf.nn.convolution_141/convolution/filter", "model_41/tf.math.add_173/Add/y"], "device": "/device:CPU:0", "attr": {"strides": {"list": {"i": ["1", "2", "2", "1"]}}, "filter_format": {"s": "SFdJTw=="}, "use_cudnn_on_gpu": {"b": true}, "explicit_paddings": {"list": {}}, "TArgs": {"list": {"type": ["DT_FLOAT"]}}, "epsilon": {"f": 0.0}, "padding": {"s": "VkFMSUQ="}, "dilations": {"list": {"i": ["1", "1", "1", "1"]}}, "fused_ops": {"list": {"s": ["Qmlhc0FkZA=="]}}, "num_host_args": {"i": "0"}, "leakyrelu_alpha": {"f": 0.2}, "T": {"type": "DT_FLOAT"}, "data_format": {"s": "TkhXQw=="}, "num_args": {"i": "1"}}}, {"name": "model_41/tf.math.sigmoid_129/Sigmoid", "op": "Sigmoid", "input": ["model_41/tf.math.add_173/Add"], "attr": {"T": {"type": "DT_FLOAT"}}}, {"name": "model_41/tf.math.multiply_567/Mul", "op": "Mul", "input": ["model_41/tf.math.add_173/Add", "model_41/tf.math.sigmoid_129/Sigmoid"], "attr": {"T": {"type": "DT_FLOAT"}}}, {"name": "model_41/tf.math.add_174/Add", "op": "_FusedConv2D", "input": ["model_41/tf.math.multiply_567/Mul", "model_41/tf.nn.convolution_142/convolution/filter", "model_41/tf.math.add_174/Add/y"], "device": "/device:CPU:0", "attr": {"fused_ops": {"list": {"s": ["Qmlhc0FkZA=="]}}, "TArgs": {"list": {"type": ["DT_FLOAT"]}}, "T": {"type": "DT_FLOAT"}, "data_format": {"s": "TkhXQw=="}, "epsilon": {"f": 0.0}, "num_host_args": {"i": "0"}, "dilations": {"list": {"i": ["1", "1", "1", "1"]}}, "strides": {"list": {"i": ["1", "1", "1", "1"]}}, "filter_format": {"s": "SFdJTw=="}, "use_cudnn_on_gpu": {"b": true}, "leakyrelu_alpha": {"f": 0.2}, "padding": {"s": "U0FNRQ=="}, "num_args": {"i": "1"}, "explicit_paddings": {"list": {}}}}, {"name": "model_41/tf.math.sigmoid_130/Sigmoid", "op": "Sigmoid", "input": ["model_41/tf.math.add_174/Add"], "attr": {"T": {"type": "DT_FLOAT"}}}, {"name": "model_41/tf.math.multiply_571/Mul", "op": "Mul", "input": ["model_41/tf.math.add_174/Add", "model_41/tf.math.sigmoid_130/Sigmoid"], "attr": {"T": {"type": "DT_FLOAT"}}}, {"name": "model_41/tf.strided_slice_44/StridedSlice", "op": "StridedSlice", "input": ["model_41/tf.math.multiply_571/Mul", "model_41/tf.strided_slice_44/ones_like/tensor", "model_41/tf.strided_slice_44/StridedSlice/end", "model_41/tf.strided_slice_44/ones_like"], "attr": {"Index": {"type": "DT_INT64"}, "begin_mask": {"i": "15"}, "shrink_axis_mask": {"i": "0"}, "ellipsis_mask": {"i": "0"}, "new_axis_mask": {"i": "0"}, "T": {"type": "DT_FLOAT"}, "end_mask": {"i": "7"}}}, {"name": "model_41/tf.strided_slice_45/StridedSlice", "op": "StridedSlice", "input": ["model_41/tf.math.multiply_571/Mul", "model_41/tf.strided_slice_45/ones_like/tensor", "model_41/tf.strided_slice_45/StridedSlice/end", "model_41/tf.strided_slice_45/ones_like"], "attr": {"T": {"type": "DT_FLOAT"}, "shrink_axis_mask": {"i": "0"}, "end_mask": {"i": "7"}, "Index": {"type": "DT_INT64"}, "ellipsis_mask": {"i": "0"}, "begin_mask": {"i": "7"}, "new_axis_mask": {"i": "0"}}}, {"name": "model_41/tf.math.add_175/Add", "op": "_FusedConv2D", "input": ["model_41/tf.strided_slice_45/StridedSlice", "model_41/tf.nn.convolution_143/convolution/filter", "model_41/tf.math.add_175/Add/y"], "device": "/device:CPU:0", "attr": {"num_host_args": {"i": "0"}, "leakyrelu_alpha": {"f": 0.2}, "num_args": {"i": "1"}, "filter_format": {"s": "SFdJTw=="}, "strides": {"list": {"i": ["1", "1", "1", "1"]}}, "TArgs": {"list": {"type": ["DT_FLOAT"]}}, "data_format": {"s": "TkhXQw=="}, "T": {"type": "DT_FLOAT"}, "padding": {"s": "U0FNRQ=="}, "dilations": {"list": {"i": ["1", "1", "1", "1"]}}, "use_cudnn_on_gpu": {"b": true}, "fused_ops": {"list": {"s": ["Qmlhc0FkZA=="]}}, "explicit_paddings": {"list": {}}, "epsilon": {"f": 0.0}}}, {"name": "model_41/tf.math.sigmoid_131/Sigmoid", "op": "Sigmoid", "input": ["model_41/tf.math.add_175/Add"], "attr": {"T": {"type": "DT_FLOAT"}}}, {"name": "model_41/tf.math.multiply_575/Mul", "op": "Mul", "input": ["model_41/tf.math.add_175/Add", "model_41/tf.math.sigmoid_131/Sigmoid"], "attr": {"T": {"type": "DT_FLOAT"}}}, {"name": "model_41/tf.math.add_176/Add", "op": "_FusedConv2D", "input": ["model_41/tf.math.multiply_575/Mul", "model_41/tf.nn.convolution_144/convolution/filter", "model_41/tf.math.add_176/Add/y"], "device": "/device:CPU:0", "attr": {"strides": {"list": {"i": ["1", "1", "1", "1"]}}, "TArgs": {"list": {"type": ["DT_FLOAT"]}}, "use_cudnn_on_gpu": {"b": true}, "T": {"type": "DT_FLOAT"}, "num_host_args": {"i": "0"}, "explicit_paddings": {"list": {}}, "dilations": {"list": {"i": ["1", "1", "1", "1"]}}, "leakyrelu_alpha": {"f": 0.2}, "padding": {"s": "U0FNRQ=="}, "filter_format": {"s": "SFdJTw=="}, "data_format": {"s": "TkhXQw=="}, "epsilon": {"f": 0.0}, "fused_ops": {"list": {"s": ["Qmlhc0FkZA=="]}}, "num_args": {"i": "1"}}}, {"name": "model_41/tf.math.sigmoid_132/Sigmoid", "op": "Sigmoid", "input": ["model_41/tf.math.add_176/Add"], "attr": {"T": {"type": "DT_FLOAT"}}}, {"name": "model_41/tf.math.multiply_579/Mul", "op": "Mul", "input": ["model_41/tf.math.add_176/Add", "model_41/tf.math.sigmoid_132/Sigmoid"], "attr": {"T": {"type": "DT_FLOAT"}}}, {"name": "model_41/tf.math.add_178/Add", "op": "AddV2", "input": ["model_41/tf.strided_slice_45/StridedSlice", "model_41/tf.math.multiply_579/Mul"], "attr": {"T": {"type": "DT_FLOAT"}}}, {"name": "model_41/tf.math.add_179/Add", "op": "_FusedConv2D", "input": ["model_41/tf.math.add_178/Add", "model_41/tf.nn.convolution_145/convolution/filter", "model_41/tf.math.add_179/Add/y"], "device": "/device:CPU:0", "attr": {"strides": {"list": {"i": ["1", "1", "1", "1"]}}, "use_cudnn_on_gpu": {"b": true}, "T": {"type": "DT_FLOAT"}, "filter_format": {"s": "SFdJTw=="}, "TArgs": {"list": {"type": ["DT_FLOAT"]}}, "explicit_paddings": {"list": {}}, "num_args": {"i": "1"}, "fused_ops": {"list": {"s": ["Qmlhc0FkZA=="]}}, "leakyrelu_alpha": {"f": 0.2}, "num_host_args": {"i": "0"}, "padding": {"s": "U0FNRQ=="}, "dilations": {"list": {"i": ["1", "1", "1", "1"]}}, "data_format": {"s": "TkhXQw=="}, "epsilon": {"f": 0.0}}}, {"name": "model_41/tf.math.sigmoid_133/Sigmoid", "op": "Sigmoid", "input": ["model_41/tf.math.add_179/Add"], "attr": {"T": {"type": "DT_FLOAT"}}}, {"name": "model_41/tf.math.multiply_585/Mul", "op": "Mul", "input": ["model_41/tf.math.add_179/Add", "model_41/tf.math.sigmoid_133/Sigmoid"], "attr": {"T": {"type": "DT_FLOAT"}}}, {"name": "model_41/tf.math.add_180/Add", "op": "_FusedConv2D", "input": ["model_41/tf.math.multiply_585/Mul", "model_41/tf.nn.convolution_146/convolution/filter", "model_41/tf.math.add_180/Add/y"], "device": "/device:CPU:0", "attr": {"filter_format": {"s": "SFdJTw=="}, "padding": {"s": "U0FNRQ=="}, "TArgs": {"list": {"type": ["DT_FLOAT"]}}, "use_cudnn_on_gpu": {"b": true}, "T": {"type": "DT_FLOAT"}, "fused_ops": {"list": {"s": ["Qmlhc0FkZA=="]}}, "explicit_paddings": {"list": {}}, "dilations": {"list": {"i": ["1", "1", "1", "1"]}}, "strides": {"list": {"i": ["1", "1", "1", "1"]}}, "num_host_args": {"i": "0"}, "epsilon": {"f": 0.0}, "leakyrelu_alpha": {"f": 0.2}, "data_format": {"s": "TkhXQw=="}, "num_args": {"i": "1"}}}, {"name": "model_41/tf.math.sigmoid_134/Sigmoid", "op": "Sigmoid", "input": ["model_41/tf.math.add_180/Add"], "attr": {"T": {"type": "DT_FLOAT"}}}, {"name": "model_41/tf.math.multiply_589/Mul", "op": "Mul", "input": ["model_41/tf.math.add_180/Add", "model_41/tf.math.sigmoid_134/Sigmoid"], "attr": {"T": {"type": "DT_FLOAT"}}}, {"name": "model_41/tf.math.add_182/Add", "op": "AddV2", "input": ["model_41/tf.math.add_178/Add", "model_41/tf.math.multiply_589/Mul"], "attr": {"T": {"type": "DT_FLOAT"}}}, {"name": "model_41/tf.concat_46/concat", "op": "ConcatV2", "input": ["model_41/tf.strided_slice_44/StridedSlice", "model_41/tf.strided_slice_45/StridedSlice", "model_41/tf.math.add_178/Add", "model_41/tf.math.add_182/Add", "model_41/tf.concat_46/concat/axis"], "attr": {"Tidx": {"type": "DT_INT32"}, "T": {"type": "DT_FLOAT"}, "N": {"i": "4"}}}, {"name": "model_41/tf.math.add_183/Add", "op": "_FusedConv2D", "input": ["model_41/tf.concat_46/concat", "model_41/tf.nn.convolution_147/convolution/filter", "model_41/tf.math.add_183/Add/y"], "device": "/device:CPU:0", "attr": {"strides": {"list": {"i": ["1", "1", "1", "1"]}}, "use_cudnn_on_gpu": {"b": true}, "num_args": {"i": "1"}, "leakyrelu_alpha": {"f": 0.2}, "explicit_paddings": {"list": {}}, "fused_ops": {"list": {"s": ["Qmlhc0FkZA=="]}}, "epsilon": {"f": 0.0}, "padding": {"s": "U0FNRQ=="}, "filter_format": {"s": "SFdJTw=="}, "TArgs": {"list": {"type": ["DT_FLOAT"]}}, "num_host_args": {"i": "0"}, "data_format": {"s": "TkhXQw=="}, "T": {"type": "DT_FLOAT"}, "dilations": {"list": {"i": ["1", "1", "1", "1"]}}}}, {"name": "model_41/tf.math.sigmoid_135/Sigmoid", "op": "Sigmoid", "input": ["model_41/tf.math.add_183/Add"], "attr": {"T": {"type": "DT_FLOAT"}}}, {"name": "model_41/tf.math.multiply_595/Mul", "op": "Mul", "input": ["model_41/tf.math.add_183/Add", "model_41/tf.math.sigmoid_135/Sigmoid"], "attr": {"T": {"type": "DT_FLOAT"}}}, {"name": "model_41/tf.compat.v1.pad_18/Pad", "op": "Pad", "input": ["model_41/tf.math.multiply_595/Mul", "model_41/tf.compat.v1.pad_18/Pad/paddings"], "attr": {"T": {"type": "DT_FLOAT"}, "Tpaddings": {"type": "DT_INT32"}}}, {"name": "model_41/tf.math.add_184/Add", "op": "_FusedConv2D", "input": ["model_41/tf.compat.v1.pad_18/Pad", "model_41/tf.nn.convolution_148/convolution/filter", "model_41/tf.math.add_184/Add/y"], "device": "/device:CPU:0", "attr": {"use_cudnn_on_gpu": {"b": true}, "epsilon": {"f": 0.0}, "num_host_args": {"i": "0"}, "strides": {"list": {"i": ["1", "2", "2", "1"]}}, "dilations": {"list": {"i": ["1", "1", "1", "1"]}}, "filter_format": {"s": "SFdJTw=="}, "explicit_paddings": {"list": {}}, "leakyrelu_alpha": {"f": 0.2}, "padding": {"s": "VkFMSUQ="}, "data_format": {"s": "TkhXQw=="}, "TArgs": {"list": {"type": ["DT_FLOAT"]}}, "fused_ops": {"list": {"s": ["Qmlhc0FkZA=="]}}, "T": {"type": "DT_FLOAT"}, "num_args": {"i": "1"}}}, {"name": "model_41/tf.math.sigmoid_136/Sigmoid", "op": "Sigmoid", "input": ["model_41/tf.math.add_184/Add"], "attr": {"T": {"type": "DT_FLOAT"}}}, {"name": "model_41/tf.math.multiply_599/Mul", "op": "Mul", "input": ["model_41/tf.math.add_184/Add", "model_41/tf.math.sigmoid_136/Sigmoid"], "attr": {"T": {"type": "DT_FLOAT"}}}, {"name": "model_41/tf.math.add_185/Add", "op": "_FusedConv2D", "input": ["model_41/tf.math.multiply_599/Mul", "model_41/tf.nn.convolution_149/convolution/filter", "model_41/tf.math.add_185/Add/y"], "device": "/device:CPU:0", "attr": {"num_args": {"i": "1"}, "use_cudnn_on_gpu": {"b": true}, "TArgs": {"list": {"type": ["DT_FLOAT"]}}, "fused_ops": {"list": {"s": ["Qmlhc0FkZA=="]}}, "T": {"type": "DT_FLOAT"}, "leakyrelu_alpha": {"f": 0.2}, "epsilon": {"f": 0.0}, "strides": {"list": {"i": ["1", "1", "1", "1"]}}, "filter_format": {"s": "SFdJTw=="}, "explicit_paddings": {"list": {}}, "dilations": {"list": {"i": ["1", "1", "1", "1"]}}, "padding": {"s": "U0FNRQ=="}, "num_host_args": {"i": "0"}, "data_format": {"s": "TkhXQw=="}}}, {"name": "model_41/tf.math.sigmoid_137/Sigmoid", "op": "Sigmoid", "input": ["model_41/tf.math.add_185/Add"], "attr": {"T": {"type": "DT_FLOAT"}}}, {"name": "model_41/tf.math.multiply_603/Mul", "op": "Mul", "input": ["model_41/tf.math.add_185/Add", "model_41/tf.math.sigmoid_137/Sigmoid"], "attr": {"T": {"type": "DT_FLOAT"}}}, {"name": "model_41/tf.strided_slice_46/StridedSlice", "op": "StridedSlice", "input": ["model_41/tf.math.multiply_603/Mul", "model_41/tf.strided_slice_46/ones_like/tensor", "model_41/tf.strided_slice_46/StridedSlice/end", "model_41/tf.strided_slice_46/ones_like"], "attr": {"end_mask": {"i": "7"}, "begin_mask": {"i": "15"}, "T": {"type": "DT_FLOAT"}, "shrink_axis_mask": {"i": "0"}, "new_axis_mask": {"i": "0"}, "ellipsis_mask": {"i": "0"}, "Index": {"type": "DT_INT64"}}}, {"name": "model_41/tf.strided_slice_47/StridedSlice", "op": "StridedSlice", "input": ["model_41/tf.math.multiply_603/Mul", "model_41/tf.strided_slice_47/ones_like/tensor", "model_41/tf.strided_slice_47/StridedSlice/end", "model_41/tf.strided_slice_47/ones_like"], "attr": {"begin_mask": {"i": "7"}, "new_axis_mask": {"i": "0"}, "Index": {"type": "DT_INT64"}, "T": {"type": "DT_FLOAT"}, "shrink_axis_mask": {"i": "0"}, "end_mask": {"i": "7"}, "ellipsis_mask": {"i": "0"}}}, {"name": "model_41/tf.math.add_186/Add", "op": "_FusedConv2D", "input": ["model_41/tf.strided_slice_47/StridedSlice", "model_41/tf.nn.convolution_150/convolution/filter", "model_41/tf.math.add_186/Add/y"], "device": "/device:CPU:0", "attr": {"fused_ops": {"list": {"s": ["Qmlhc0FkZA=="]}}, "padding": {"s": "U0FNRQ=="}, "explicit_paddings": {"list": {}}, "filter_format": {"s": "SFdJTw=="}, "T": {"type": "DT_FLOAT"}, "strides": {"list": {"i": ["1", "1", "1", "1"]}}, "num_args": {"i": "1"}, "dilations": {"list": {"i": ["1", "1", "1", "1"]}}, "num_host_args": {"i": "0"}, "leakyrelu_alpha": {"f": 0.2}, "data_format": {"s": "TkhXQw=="}, "TArgs": {"list": {"type": ["DT_FLOAT"]}}, "use_cudnn_on_gpu": {"b": true}, "epsilon": {"f": 0.0}}}, {"name": "model_41/tf.math.sigmoid_138/Sigmoid", "op": "Sigmoid", "input": ["model_41/tf.math.add_186/Add"], "attr": {"T": {"type": "DT_FLOAT"}}}, {"name": "model_41/tf.math.multiply_607/Mul", "op": "Mul", "input": ["model_41/tf.math.add_186/Add", "model_41/tf.math.sigmoid_138/Sigmoid"], "attr": {"T": {"type": "DT_FLOAT"}}}, {"name": "model_41/tf.math.add_187/Add", "op": "_FusedConv2D", "input": ["model_41/tf.math.multiply_607/Mul", "model_41/tf.nn.convolution_151/convolution/filter", "model_41/tf.math.add_187/Add/y"], "device": "/device:CPU:0", "attr": {"TArgs": {"list": {"type": ["DT_FLOAT"]}}, "leakyrelu_alpha": {"f": 0.2}, "fused_ops": {"list": {"s": ["Qmlhc0FkZA=="]}}, "data_format": {"s": "TkhXQw=="}, "padding": {"s": "U0FNRQ=="}, "filter_format": {"s": "SFdJTw=="}, "T": {"type": "DT_FLOAT"}, "epsilon": {"f": 0.0}, "dilations": {"list": {"i": ["1", "1", "1", "1"]}}, "explicit_paddings": {"list": {}}, "strides": {"list": {"i": ["1", "1", "1", "1"]}}, "use_cudnn_on_gpu": {"b": true}, "num_host_args": {"i": "0"}, "num_args": {"i": "1"}}}, {"name": "model_41/tf.math.sigmoid_139/Sigmoid", "op": "Sigmoid", "input": ["model_41/tf.math.add_187/Add"], "attr": {"T": {"type": "DT_FLOAT"}}}, {"name": "model_41/tf.math.multiply_611/Mul", "op": "Mul", "input": ["model_41/tf.math.add_187/Add", "model_41/tf.math.sigmoid_139/Sigmoid"], "attr": {"T": {"type": "DT_FLOAT"}}}, {"name": "model_41/tf.math.add_189/Add", "op": "AddV2", "input": ["model_41/tf.strided_slice_47/StridedSlice", "model_41/tf.math.multiply_611/Mul"], "attr": {"T": {"type": "DT_FLOAT"}}}, {"name": "model_41/tf.concat_47/concat", "op": "ConcatV2", "input": ["model_41/tf.strided_slice_46/StridedSlice", "model_41/tf.strided_slice_47/StridedSlice", "model_41/tf.math.add_189/Add", "model_41/tf.concat_47/concat/axis"], "attr": {"Tidx": {"type": "DT_INT32"}, "T": {"type": "DT_FLOAT"}, "N": {"i": "3"}}}, {"name": "model_41/tf.math.add_190/Add", "op": "_FusedConv2D", "input": ["model_41/tf.concat_47/concat", "model_41/tf.nn.convolution_152/convolution/filter", "model_41/tf.math.add_190/Add/y"], "device": "/device:CPU:0", "attr": {"num_host_args": {"i": "0"}, "leakyrelu_alpha": {"f": 0.2}, "use_cudnn_on_gpu": {"b": true}, "dilations": {"list": {"i": ["1", "1", "1", "1"]}}, "explicit_paddings": {"list": {}}, "strides": {"list": {"i": ["1", "1", "1", "1"]}}, "T": {"type": "DT_FLOAT"}, "padding": {"s": "U0FNRQ=="}, "epsilon": {"f": 0.0}, "data_format": {"s": "TkhXQw=="}, "TArgs": {"list": {"type": ["DT_FLOAT"]}}, "filter_format": {"s": "SFdJTw=="}, "fused_ops": {"list": {"s": ["Qmlhc0FkZA=="]}}, "num_args": {"i": "1"}}}, {"name": "model_41/tf.math.sigmoid_140/Sigmoid", "op": "Sigmoid", "input": ["model_41/tf.math.add_190/Add"], "attr": {"T": {"type": "DT_FLOAT"}}}, {"name": "model_41/tf.math.multiply_617/Mul", "op": "Mul", "input": ["model_41/tf.math.add_190/Add", "model_41/tf.math.sigmoid_140/Sigmoid"], "attr": {"T": {"type": "DT_FLOAT"}}}, {"name": "model_41/tf.math.add_191/Add", "op": "_FusedConv2D", "input": ["model_41/tf.math.multiply_617/Mul", "model_41/tf.nn.convolution_153/convolution/filter", "model_41/tf.math.add_191/Add/y"], "device": "/device:CPU:0", "attr": {"leakyrelu_alpha": {"f": 0.2}, "TArgs": {"list": {"type": ["DT_FLOAT"]}}, "strides": {"list": {"i": ["1", "1", "1", "1"]}}, "epsilon": {"f": 0.0}, "use_cudnn_on_gpu": {"b": true}, "padding": {"s": "U0FNRQ=="}, "data_format": {"s": "TkhXQw=="}, "explicit_paddings": {"list": {}}, "fused_ops": {"list": {"s": ["Qmlhc0FkZA=="]}}, "filter_format": {"s": "SFdJTw=="}, "num_args": {"i": "1"}, "num_host_args": {"i": "0"}, "T": {"type": "DT_FLOAT"}, "dilations": {"list": {"i": ["1", "1", "1", "1"]}}}}, {"name": "model_41/tf.math.sigmoid_141/Sigmoid", "op": "Sigmoid", "input": ["model_41/tf.math.add_191/Add"], "attr": {"T": {"type": "DT_FLOAT"}}}, {"name": "model_41/tf.math.multiply_621/Mul", "op": "Mul", "input": ["model_41/tf.math.add_191/Add", "model_41/tf.math.sigmoid_141/Sigmoid"], "attr": {"T": {"type": "DT_FLOAT"}}}, {"name": "model_41/tf.compat.v1.nn.pool_6/max_pool", "op": "MaxPool", "input": ["model_41/tf.math.multiply_621/Mul"], "attr": {"strides": {"list": {"i": ["1", "1", "1", "1"]}}, "data_format": {"s": "TkhXQw=="}, "padding": {"s": "U0FNRQ=="}, "T": {"type": "DT_FLOAT"}, "explicit_paddings": {"list": {}}, "ksize": {"list": {"i": ["1", "5", "5", "1"]}}}}, {"name": "model_41/tf.compat.v1.nn.pool_7/max_pool", "op": "MaxPool", "input": ["model_41/tf.compat.v1.nn.pool_6/max_pool"], "attr": {"ksize": {"list": {"i": ["1", "5", "5", "1"]}}, "padding": {"s": "U0FNRQ=="}, "strides": {"list": {"i": ["1", "1", "1", "1"]}}, "T": {"type": "DT_FLOAT"}, "explicit_paddings": {"list": {}}, "data_format": {"s": "TkhXQw=="}}}, {"name": "model_41/tf.compat.v1.nn.pool_8/max_pool", "op": "MaxPool", "input": ["model_41/tf.compat.v1.nn.pool_7/max_pool"], "attr": {"ksize": {"list": {"i": ["1", "5", "5", "1"]}}, "T": {"type": "DT_FLOAT"}, "data_format": {"s": "TkhXQw=="}, "explicit_paddings": {"list": {}}, "strides": {"list": {"i": ["1", "1", "1", "1"]}}, "padding": {"s": "U0FNRQ=="}}}, {"name": "model_41/tf.concat_48/concat", "op": "ConcatV2", "input": ["model_41/tf.math.multiply_621/Mul", "model_41/tf.compat.v1.nn.pool_6/max_pool", "model_41/tf.compat.v1.nn.pool_7/max_pool", "model_41/tf.compat.v1.nn.pool_8/max_pool", "model_41/tf.concat_48/concat/axis"], "attr": {"T": {"type": "DT_FLOAT"}, "Tidx": {"type": "DT_INT32"}, "N": {"i": "4"}}}, {"name": "model_41/tf.math.add_192/Add", "op": "_FusedConv2D", "input": ["model_41/tf.concat_48/concat", "model_41/tf.nn.convolution_154/convolution/filter", "model_41/tf.math.add_192/Add/y"], "device": "/device:CPU:0", "attr": {"data_format": {"s": "TkhXQw=="}, "num_args": {"i": "1"}, "filter_format": {"s": "SFdJTw=="}, "epsilon": {"f": 0.0}, "TArgs": {"list": {"type": ["DT_FLOAT"]}}, "padding": {"s": "U0FNRQ=="}, "T": {"type": "DT_FLOAT"}, "dilations": {"list": {"i": ["1", "1", "1", "1"]}}, "num_host_args": {"i": "0"}, "use_cudnn_on_gpu": {"b": true}, "strides": {"list": {"i": ["1", "1", "1", "1"]}}, "explicit_paddings": {"list": {}}, "fused_ops": {"list": {"s": ["Qmlhc0FkZA=="]}}, "leakyrelu_alpha": {"f": 0.2}}}, {"name": "model_41/tf.math.sigmoid_142/Sigmoid", "op": "Sigmoid", "input": ["model_41/tf.math.add_192/Add"], "attr": {"T": {"type": "DT_FLOAT"}}}, {"name": "model_41/tf.math.multiply_625/Mul", "op": "Mul", "input": ["model_41/tf.math.add_192/Add", "model_41/tf.math.sigmoid_142/Sigmoid"], "attr": {"T": {"type": "DT_FLOAT"}}}, {"name": "model_41/tf.image.resize_4/resize/ResizeNearestNeighbor", "op": "ResizeNearestNeighbor", "input": ["model_41/tf.math.multiply_625/Mul", "model_41/tf.image.resize_4/resize/size"], "attr": {"T": {"type": "DT_FLOAT"}, "align_corners": {"b": false}, "half_pixel_centers": {"b": true}}}, {"name": "model_41/tf.concat_49/concat", "op": "ConcatV2", "input": ["model_41/tf.image.resize_4/resize/ResizeNearestNeighbor", "model_41/tf.math.multiply_595/Mul", "model_41/tf.concat_49/concat/axis"], "attr": {"T": {"type": "DT_FLOAT"}, "Tidx": {"type": "DT_INT32"}, "N": {"i": "2"}}}, {"name": "model_41/tf.math.add_193/Add", "op": "_FusedConv2D", "input": ["model_41/tf.concat_49/concat", "model_41/tf.nn.convolution_155/convolution/filter", "model_41/tf.math.add_193/Add/y"], "device": "/device:CPU:0", "attr": {"T": {"type": "DT_FLOAT"}, "use_cudnn_on_gpu": {"b": true}, "fused_ops": {"list": {"s": ["Qmlhc0FkZA=="]}}, "dilations": {"list": {"i": ["1", "1", "1", "1"]}}, "explicit_paddings": {"list": {}}, "padding": {"s": "U0FNRQ=="}, "data_format": {"s": "TkhXQw=="}, "epsilon": {"f": 0.0}, "strides": {"list": {"i": ["1", "1", "1", "1"]}}, "filter_format": {"s": "SFdJTw=="}, "num_host_args": {"i": "0"}, "leakyrelu_alpha": {"f": 0.2}, "TArgs": {"list": {"type": ["DT_FLOAT"]}}, "num_args": {"i": "1"}}}, {"name": "model_41/tf.math.sigmoid_143/Sigmoid", "op": "Sigmoid", "input": ["model_41/tf.math.add_193/Add"], "attr": {"T": {"type": "DT_FLOAT"}}}, {"name": "model_41/tf.math.multiply_629/Mul", "op": "Mul", "input": ["model_41/tf.math.add_193/Add", "model_41/tf.math.sigmoid_143/Sigmoid"], "attr": {"T": {"type": "DT_FLOAT"}}}, {"name": "model_41/tf.strided_slice_48/StridedSlice", "op": "StridedSlice", "input": ["model_41/tf.math.multiply_629/Mul", "model_41/tf.strided_slice_48/ones_like/tensor", "model_41/tf.strided_slice_48/StridedSlice/end", "model_41/tf.strided_slice_48/ones_like"], "attr": {"new_axis_mask": {"i": "0"}, "shrink_axis_mask": {"i": "0"}, "end_mask": {"i": "7"}, "ellipsis_mask": {"i": "0"}, "Index": {"type": "DT_INT64"}, "begin_mask": {"i": "15"}, "T": {"type": "DT_FLOAT"}}}, {"name": "model_41/tf.strided_slice_49/StridedSlice", "op": "StridedSlice", "input": ["model_41/tf.math.multiply_629/Mul", "model_41/tf.strided_slice_49/ones_like/tensor", "model_41/tf.strided_slice_49/StridedSlice/end", "model_41/tf.strided_slice_49/ones_like"], "attr": {"end_mask": {"i": "7"}, "T": {"type": "DT_FLOAT"}, "ellipsis_mask": {"i": "0"}, "shrink_axis_mask": {"i": "0"}, "new_axis_mask": {"i": "0"}, "begin_mask": {"i": "7"}, "Index": {"type": "DT_INT64"}}}, {"name": "model_41/tf.math.add_194/Add", "op": "_FusedConv2D", "input": ["model_41/tf.strided_slice_49/StridedSlice", "model_41/tf.nn.convolution_156/convolution/filter", "model_41/tf.math.add_194/Add/y"], "device": "/device:CPU:0", "attr": {"padding": {"s": "U0FNRQ=="}, "filter_format": {"s": "SFdJTw=="}, "fused_ops": {"list": {"s": ["Qmlhc0FkZA=="]}}, "num_args": {"i": "1"}, "leakyrelu_alpha": {"f": 0.2}, "dilations": {"list": {"i": ["1", "1", "1", "1"]}}, "explicit_paddings": {"list": {}}, "strides": {"list": {"i": ["1", "1", "1", "1"]}}, "TArgs": {"list": {"type": ["DT_FLOAT"]}}, "epsilon": {"f": 0.0}, "data_format": {"s": "TkhXQw=="}, "use_cudnn_on_gpu": {"b": true}, "num_host_args": {"i": "0"}, "T": {"type": "DT_FLOAT"}}}, {"name": "model_41/tf.math.sigmoid_144/Sigmoid", "op": "Sigmoid", "input": ["model_41/tf.math.add_194/Add"], "attr": {"T": {"type": "DT_FLOAT"}}}, {"name": "model_41/tf.math.multiply_633/Mul", "op": "Mul", "input": ["model_41/tf.math.add_194/Add", "model_41/tf.math.sigmoid_144/Sigmoid"], "attr": {"T": {"type": "DT_FLOAT"}}}, {"name": "model_41/tf.math.add_195/Add", "op": "_FusedConv2D", "input": ["model_41/tf.math.multiply_633/Mul", "model_41/tf.nn.convolution_157/convolution/filter", "model_41/tf.math.add_195/Add/y"], "device": "/device:CPU:0", "attr": {"epsilon": {"f": 0.0}, "data_format": {"s": "TkhXQw=="}, "num_args": {"i": "1"}, "use_cudnn_on_gpu": {"b": true}, "TArgs": {"list": {"type": ["DT_FLOAT"]}}, "fused_ops": {"list": {"s": ["Qmlhc0FkZA=="]}}, "leakyrelu_alpha": {"f": 0.2}, "padding": {"s": "U0FNRQ=="}, "filter_format": {"s": "SFdJTw=="}, "num_host_args": {"i": "0"}, "strides": {"list": {"i": ["1", "1", "1", "1"]}}, "T": {"type": "DT_FLOAT"}, "dilations": {"list": {"i": ["1", "1", "1", "1"]}}, "explicit_paddings": {"list": {}}}}, {"name": "model_41/tf.math.sigmoid_145/Sigmoid", "op": "Sigmoid", "input": ["model_41/tf.math.add_195/Add"], "attr": {"T": {"type": "DT_FLOAT"}}}, {"name": "model_41/tf.math.multiply_637/Mul", "op": "Mul", "input": ["model_41/tf.math.add_195/Add", "model_41/tf.math.sigmoid_145/Sigmoid"], "attr": {"T": {"type": "DT_FLOAT"}}}, {"name": "model_41/tf.concat_50/concat", "op": "ConcatV2", "input": ["model_41/tf.strided_slice_48/StridedSlice", "model_41/tf.strided_slice_49/StridedSlice", "model_41/tf.math.multiply_637/Mul", "model_41/tf.concat_50/concat/axis"], "attr": {"N": {"i": "3"}, "T": {"type": "DT_FLOAT"}, "Tidx": {"type": "DT_INT32"}}}, {"name": "model_41/tf.math.add_196/Add", "op": "_FusedConv2D", "input": ["model_41/tf.concat_50/concat", "model_41/tf.nn.convolution_158/convolution/filter", "model_41/tf.math.add_196/Add/y"], "device": "/device:CPU:0", "attr": {"dilations": {"list": {"i": ["1", "1", "1", "1"]}}, "strides": {"list": {"i": ["1", "1", "1", "1"]}}, "use_cudnn_on_gpu": {"b": true}, "epsilon": {"f": 0.0}, "TArgs": {"list": {"type": ["DT_FLOAT"]}}, "fused_ops": {"list": {"s": ["Qmlhc0FkZA=="]}}, "num_args": {"i": "1"}, "padding": {"s": "U0FNRQ=="}, "filter_format": {"s": "SFdJTw=="}, "data_format": {"s": "TkhXQw=="}, "explicit_paddings": {"list": {}}, "num_host_args": {"i": "0"}, "leakyrelu_alpha": {"f": 0.2}, "T": {"type": "DT_FLOAT"}}}, {"name": "model_41/tf.math.sigmoid_146/Sigmoid", "op": "Sigmoid", "input": ["model_41/tf.math.add_196/Add"], "attr": {"T": {"type": "DT_FLOAT"}}}, {"name": "model_41/tf.math.multiply_641/Mul", "op": "Mul", "input": ["model_41/tf.math.add_196/Add", "model_41/tf.math.sigmoid_146/Sigmoid"], "attr": {"T": {"type": "DT_FLOAT"}}}, {"name": "model_41/tf.image.resize_5/resize/ResizeNearestNeighbor", "op": "ResizeNearestNeighbor", "input": ["model_41/tf.math.multiply_641/Mul", "model_41/tf.image.resize_5/resize/size"], "attr": {"half_pixel_centers": {"b": true}, "align_corners": {"b": false}, "T": {"type": "DT_FLOAT"}}}, {"name": "model_41/tf.concat_51/concat", "op": "ConcatV2", "input": ["model_41/tf.image.resize_5/resize/ResizeNearestNeighbor", "model_41/tf.math.multiply_563/Mul", "model_41/tf.concat_51/concat/axis"], "attr": {"T": {"type": "DT_FLOAT"}, "Tidx": {"type": "DT_INT32"}, "N": {"i": "2"}}}, {"name": "model_41/tf.math.add_197/Add", "op": "_FusedConv2D", "input": ["model_41/tf.concat_51/concat", "model_41/tf.nn.convolution_159/convolution/filter", "model_41/tf.math.add_197/Add/y"], "device": "/device:CPU:0", "attr": {"TArgs": {"list": {"type": ["DT_FLOAT"]}}, "num_args": {"i": "1"}, "epsilon": {"f": 0.0}, "strides": {"list": {"i": ["1", "1", "1", "1"]}}, "leakyrelu_alpha": {"f": 0.2}, "explicit_paddings": {"list": {}}, "use_cudnn_on_gpu": {"b": true}, "num_host_args": {"i": "0"}, "data_format": {"s": "TkhXQw=="}, "dilations": {"list": {"i": ["1", "1", "1", "1"]}}, "filter_format": {"s": "SFdJTw=="}, "T": {"type": "DT_FLOAT"}, "padding": {"s": "U0FNRQ=="}, "fused_ops": {"list": {"s": ["Qmlhc0FkZA=="]}}}}, {"name": "model_41/tf.math.sigmoid_147/Sigmoid", "op": "Sigmoid", "input": ["model_41/tf.math.add_197/Add"], "attr": {"T": {"type": "DT_FLOAT"}}}, {"name": "model_41/tf.math.multiply_645/Mul", "op": "Mul", "input": ["model_41/tf.math.add_197/Add", "model_41/tf.math.sigmoid_147/Sigmoid"], "attr": {"T": {"type": "DT_FLOAT"}}}, {"name": "model_41/tf.strided_slice_50/StridedSlice", "op": "StridedSlice", "input": ["model_41/tf.math.multiply_645/Mul", "model_41/tf.strided_slice_50/ones_like/tensor", "model_41/tf.strided_slice_50/StridedSlice/end", "model_41/tf.strided_slice_50/ones_like"], "attr": {"Index": {"type": "DT_INT64"}, "shrink_axis_mask": {"i": "0"}, "begin_mask": {"i": "15"}, "T": {"type": "DT_FLOAT"}, "end_mask": {"i": "7"}, "new_axis_mask": {"i": "0"}, "ellipsis_mask": {"i": "0"}}}, {"name": "model_41/tf.strided_slice_51/StridedSlice", "op": "StridedSlice", "input": ["model_41/tf.math.multiply_645/Mul", "model_41/tf.strided_slice_51/ones_like/tensor", "model_41/tf.strided_slice_51/StridedSlice/end", "model_41/tf.strided_slice_51/ones_like"], "attr": {"new_axis_mask": {"i": "0"}, "begin_mask": {"i": "7"}, "Index": {"type": "DT_INT64"}, "end_mask": {"i": "7"}, "ellipsis_mask": {"i": "0"}, "T": {"type": "DT_FLOAT"}, "shrink_axis_mask": {"i": "0"}}}, {"name": "model_41/tf.math.add_198/Add", "op": "_FusedConv2D", "input": ["model_41/tf.strided_slice_51/StridedSlice", "model_41/tf.nn.convolution_160/convolution/filter", "model_41/tf.math.add_198/Add/y"], "device": "/device:CPU:0", "attr": {"explicit_paddings": {"list": {}}, "num_args": {"i": "1"}, "use_cudnn_on_gpu": {"b": true}, "T": {"type": "DT_FLOAT"}, "num_host_args": {"i": "0"}, "dilations": {"list": {"i": ["1", "1", "1", "1"]}}, "padding": {"s": "U0FNRQ=="}, "strides": {"list": {"i": ["1", "1", "1", "1"]}}, "fused_ops": {"list": {"s": ["Qmlhc0FkZA=="]}}, "TArgs": {"list": {"type": ["DT_FLOAT"]}}, "epsilon": {"f": 0.0}, "data_format": {"s": "TkhXQw=="}, "leakyrelu_alpha": {"f": 0.2}, "filter_format": {"s": "SFdJTw=="}}}, {"name": "model_41/tf.math.sigmoid_148/Sigmoid", "op": "Sigmoid", "input": ["model_41/tf.math.add_198/Add"], "attr": {"T": {"type": "DT_FLOAT"}}}, {"name": "model_41/tf.math.multiply_649/Mul", "op": "Mul", "input": ["model_41/tf.math.add_198/Add", "model_41/tf.math.sigmoid_148/Sigmoid"], "attr": {"T": {"type": "DT_FLOAT"}}}, {"name": "model_41/tf.math.add_199/Add", "op": "_FusedConv2D", "input": ["model_41/tf.math.multiply_649/Mul", "model_41/tf.nn.convolution_161/convolution/filter", "model_41/tf.math.add_199/Add/y"], "device": "/device:CPU:0", "attr": {"data_format": {"s": "TkhXQw=="}, "num_args": {"i": "1"}, "use_cudnn_on_gpu": {"b": true}, "T": {"type": "DT_FLOAT"}, "num_host_args": {"i": "0"}, "strides": {"list": {"i": ["1", "1", "1", "1"]}}, "padding": {"s": "U0FNRQ=="}, "fused_ops": {"list": {"s": ["Qmlhc0FkZA=="]}}, "epsilon": {"f": 0.0}, "explicit_paddings": {"list": {}}, "leakyrelu_alpha": {"f": 0.2}, "filter_format": {"s": "SFdJTw=="}, "dilations": {"list": {"i": ["1", "1", "1", "1"]}}, "TArgs": {"list": {"type": ["DT_FLOAT"]}}}}, {"name": "model_41/tf.math.sigmoid_149/Sigmoid", "op": "Sigmoid", "input": ["model_41/tf.math.add_199/Add"], "attr": {"T": {"type": "DT_FLOAT"}}}, {"name": "model_41/tf.math.multiply_653/Mul", "op": "Mul", "input": ["model_41/tf.math.add_199/Add", "model_41/tf.math.sigmoid_149/Sigmoid"], "attr": {"T": {"type": "DT_FLOAT"}}}, {"name": "model_41/tf.concat_52/concat", "op": "ConcatV2", "input": ["model_41/tf.strided_slice_50/StridedSlice", "model_41/tf.strided_slice_51/StridedSlice", "model_41/tf.math.multiply_653/Mul", "model_41/tf.concat_52/concat/axis"], "attr": {"T": {"type": "DT_FLOAT"}, "Tidx": {"type": "DT_INT32"}, "N": {"i": "3"}}}, {"name": "model_41/tf.math.add_200/Add", "op": "_FusedConv2D", "input": ["model_41/tf.concat_52/concat", "model_41/tf.nn.convolution_162/convolution/filter", "model_41/tf.math.add_200/Add/y"], "device": "/device:CPU:0", "attr": {"epsilon": {"f": 0.0}, "dilations": {"list": {"i": ["1", "1", "1", "1"]}}, "padding": {"s": "U0FNRQ=="}, "use_cudnn_on_gpu": {"b": true}, "filter_format": {"s": "SFdJTw=="}, "num_host_args": {"i": "0"}, "explicit_paddings": {"list": {}}, "T": {"type": "DT_FLOAT"}, "data_format": {"s": "TkhXQw=="}, "num_args": {"i": "1"}, "leakyrelu_alpha": {"f": 0.2}, "strides": {"list": {"i": ["1", "1", "1", "1"]}}, "fused_ops": {"list": {"s": ["Qmlhc0FkZA=="]}}, "TArgs": {"list": {"type": ["DT_FLOAT"]}}}}, {"name": "model_41/tf.math.sigmoid_150/Sigmoid", "op": "Sigmoid", "input": ["model_41/tf.math.add_200/Add"], "attr": {"T": {"type": "DT_FLOAT"}}}, {"name": "model_41/tf.math.multiply_657/Mul", "op": "Mul", "input": ["model_41/tf.math.add_200/Add", "model_41/tf.math.sigmoid_150/Sigmoid"], "attr": {"T": {"type": "DT_FLOAT"}}}, {"name": "model_41/tf.math.add_202/Add", "op": "_FusedConv2D", "input": ["model_41/tf.math.multiply_657/Mul", "model_41/tf.nn.convolution_164/convolution/filter", "model_41/tf.math.add_202/Add/y"], "device": "/device:CPU:0", "attr": {"T": {"type": "DT_FLOAT"}, "leakyrelu_alpha": {"f": 0.2}, "num_host_args": {"i": "0"}, "data_format": {"s": "TkhXQw=="}, "padding": {"s": "U0FNRQ=="}, "fused_ops": {"list": {"s": ["Qmlhc0FkZA=="]}}, "num_args": {"i": "1"}, "filter_format": {"s": "SFdJTw=="}, "dilations": {"list": {"i": ["1", "1", "1", "1"]}}, "strides": {"list": {"i": ["1", "1", "1", "1"]}}, "TArgs": {"list": {"type": ["DT_FLOAT"]}}, "explicit_paddings": {"list": {}}, "epsilon": {"f": 0.0}, "use_cudnn_on_gpu": {"b": true}}}, {"name": "model_41/tf.math.add_203/Add", "op": "_FusedConv2D", "input": ["model_41/tf.math.multiply_657/Mul", "model_41/tf.nn.convolution_165/convolution/filter", "model_41/tf.math.add_203/Add/y"], "device": "/device:CPU:0", "attr": {"data_format": {"s": "TkhXQw=="}, "strides": {"list": {"i": ["1", "1", "1", "1"]}}, "num_args": {"i": "1"}, "fused_ops": {"list": {"s": ["Qmlhc0FkZA=="]}}, "TArgs": {"list": {"type": ["DT_FLOAT"]}}, "padding": {"s": "U0FNRQ=="}, "T": {"type": "DT_FLOAT"}, "use_cudnn_on_gpu": {"b": true}, "explicit_paddings": {"list": {}}, "filter_format": {"s": "SFdJTw=="}, "leakyrelu_alpha": {"f": 0.2}, "epsilon": {"f": 0.0}, "dilations": {"list": {"i": ["1", "1", "1", "1"]}}, "num_host_args": {"i": "0"}}}, {"name": "model_41/tf.compat.v1.pad_19/Pad", "op": "Pad", "input": ["model_41/tf.math.multiply_657/Mul", "model_41/tf.compat.v1.pad_19/Pad/paddings"], "attr": {"T": {"type": "DT_FLOAT"}, "Tpaddings": {"type": "DT_INT32"}}}, {"name": "model_41/tf.math.sigmoid_152/Sigmoid", "op": "Sigmoid", "input": ["model_41/tf.math.add_202/Add"], "attr": {"T": {"type": "DT_FLOAT"}}}, {"name": "model_41/tf.math.sigmoid_153/Sigmoid", "op": "Sigmoid", "input": ["model_41/tf.math.add_203/Add"], "attr": {"T": {"type": "DT_FLOAT"}}}, {"name": "model_41/tf.math.add_201/Add", "op": "_FusedConv2D", "input": ["model_41/tf.compat.v1.pad_19/Pad", "model_41/tf.nn.convolution_163/convolution/filter", "model_41/tf.math.add_201/Add/y"], "device": "/device:CPU:0", "attr": {"TArgs": {"list": {"type": ["DT_FLOAT"]}}, "use_cudnn_on_gpu": {"b": true}, "explicit_paddings": {"list": {}}, "leakyrelu_alpha": {"f": 0.2}, "T": {"type": "DT_FLOAT"}, "data_format": {"s": "TkhXQw=="}, "dilations": {"list": {"i": ["1", "1", "1", "1"]}}, "fused_ops": {"list": {"s": ["Qmlhc0FkZA=="]}}, "filter_format": {"s": "SFdJTw=="}, "num_host_args": {"i": "0"}, "epsilon": {"f": 0.0}, "strides": {"list": {"i": ["1", "2", "2", "1"]}}, "padding": {"s": "VkFMSUQ="}, "num_args": {"i": "1"}}}, {"name": "model_41/tf.math.multiply_665/Mul", "op": "Mul", "input": ["model_41/tf.math.add_202/Add", "model_41/tf.math.sigmoid_152/Sigmoid"], "attr": {"T": {"type": "DT_FLOAT"}}}, {"name": "model_41/tf.math.multiply_669/Mul", "op": "Mul", "input": ["model_41/tf.math.add_203/Add", "model_41/tf.math.sigmoid_153/Sigmoid"], "attr": {"T": {"type": "DT_FLOAT"}}}, {"name": "model_41/tf.math.sigmoid_151/Sigmoid", "op": "Sigmoid", "input": ["model_41/tf.math.add_201/Add"], "attr": {"T": {"type": "DT_FLOAT"}}}, {"name": "model_41/tf.math.add_204/Add", "op": "_FusedConv2D", "input": ["model_41/tf.math.multiply_665/Mul", "model_41/tf.nn.convolution_166/convolution/filter", "model_41/tf.math.add_204/Add/y"], "device": "/device:CPU:0", "attr": {"TArgs": {"list": {"type": ["DT_FLOAT"]}}, "filter_format": {"s": "SFdJTw=="}, "epsilon": {"f": 0.0}, "num_host_args": {"i": "0"}, "fused_ops": {"list": {"s": ["Qmlhc0FkZA=="]}}, "padding": {"s": "U0FNRQ=="}, "leakyrelu_alpha": {"f": 0.2}, "use_cudnn_on_gpu": {"b": true}, "T": {"type": "DT_FLOAT"}, "num_args": {"i": "1"}, "data_format": {"s": "TkhXQw=="}, "explicit_paddings": {"list": {}}, "dilations": {"list": {"i": ["1", "1", "1", "1"]}}, "strides": {"list": {"i": ["1", "1", "1", "1"]}}}}, {"name": "model_41/tf.math.add_205/Add", "op": "_FusedConv2D", "input": ["model_41/tf.math.multiply_669/Mul", "model_41/tf.nn.convolution_167/convolution/filter", "model_41/tf.math.add_205/Add/y"], "device": "/device:CPU:0", "attr": {"padding": {"s": "U0FNRQ=="}, "num_args": {"i": "1"}, "data_format": {"s": "TkhXQw=="}, "dilations": {"list": {"i": ["1", "1", "1", "1"]}}, "TArgs": {"list": {"type": ["DT_FLOAT"]}}, "filter_format": {"s": "SFdJTw=="}, "explicit_paddings": {"list": {}}, "epsilon": {"f": 0.0}, "num_host_args": {"i": "0"}, "strides": {"list": {"i": ["1", "1", "1", "1"]}}, "fused_ops": {"list": {"s": ["Qmlhc0FkZA=="]}}, "T": {"type": "DT_FLOAT"}, "leakyrelu_alpha": {"f": 0.2}, "use_cudnn_on_gpu": {"b": true}}}, {"name": "model_41/tf.math.multiply_661/Mul", "op": "Mul", "input": ["model_41/tf.math.add_201/Add", "model_41/tf.math.sigmoid_151/Sigmoid"], "attr": {"T": {"type": "DT_FLOAT"}}}, {"name": "model_41/tf.math.sigmoid_154/Sigmoid", "op": "Sigmoid", "input": ["model_41/tf.math.add_204/Add"], "attr": {"T": {"type": "DT_FLOAT"}}}, {"name": "model_41/tf.math.sigmoid_155/Sigmoid", "op": "Sigmoid", "input": ["model_41/tf.math.add_205/Add"], "attr": {"T": {"type": "DT_FLOAT"}}}, {"name": "model_41/tf.concat_53/concat", "op": "ConcatV2", "input": ["model_41/tf.math.multiply_661/Mul", "model_41/tf.math.multiply_641/Mul", "model_41/tf.concat_53/concat/axis"], "attr": {"N": {"i": "2"}, "T": {"type": "DT_FLOAT"}, "Tidx": {"type": "DT_INT32"}}}, {"name": "model_41/tf.math.multiply_673/Mul", "op": "Mul", "input": ["model_41/tf.math.add_204/Add", "model_41/tf.math.sigmoid_154/Sigmoid"], "attr": {"T": {"type": "DT_FLOAT"}}}, {"name": "model_41/tf.math.multiply_677/Mul", "op": "Mul", "input": ["model_41/tf.math.add_205/Add", "model_41/tf.math.sigmoid_155/Sigmoid"], "attr": {"T": {"type": "DT_FLOAT"}}}, {"name": "model_41/tf.math.add_206/Add", "op": "_FusedConv2D", "input": ["model_41/tf.concat_53/concat", "model_41/tf.nn.convolution_168/convolution/filter", "model_41/tf.math.add_206/Add/y"], "device": "/device:CPU:0", "attr": {"padding": {"s": "U0FNRQ=="}, "num_host_args": {"i": "0"}, "epsilon": {"f": 0.0}, "num_args": {"i": "1"}, "filter_format": {"s": "SFdJTw=="}, "dilations": {"list": {"i": ["1", "1", "1", "1"]}}, "fused_ops": {"list": {"s": ["Qmlhc0FkZA=="]}}, "T": {"type": "DT_FLOAT"}, "TArgs": {"list": {"type": ["DT_FLOAT"]}}, "leakyrelu_alpha": {"f": 0.2}, "use_cudnn_on_gpu": {"b": true}, "data_format": {"s": "TkhXQw=="}, "explicit_paddings": {"list": {}}, "strides": {"list": {"i": ["1", "1", "1", "1"]}}}}, {"name": "model_41/tf.math.add_207/Add", "op": "_FusedConv2D", "input": ["model_41/tf.math.multiply_673/Mul", "model_41/tf.nn.convolution_169/convolution/filter", "model_41/tf.math.add_207/Add/y"], "device": "/device:CPU:0", "attr": {"epsilon": {"f": 0.0}, "num_host_args": {"i": "0"}, "data_format": {"s": "TkhXQw=="}, "fused_ops": {"list": {"s": ["Qmlhc0FkZA=="]}}, "explicit_paddings": {"list": {}}, "leakyrelu_alpha": {"f": 0.2}, "strides": {"list": {"i": ["1", "1", "1", "1"]}}, "TArgs": {"list": {"type": ["DT_FLOAT"]}}, "use_cudnn_on_gpu": {"b": true}, "T": {"type": "DT_FLOAT"}, "filter_format": {"s": "SFdJTw=="}, "padding": {"s": "U0FNRQ=="}, "num_args": {"i": "1"}, "dilations": {"list": {"i": ["1", "1", "1", "1"]}}}}, {"name": "model_41/tf.math.add_208/Add", "op": "_FusedConv2D", "input": ["model_41/tf.math.multiply_677/Mul", "model_41/tf.nn.convolution_170/convolution/filter", "model_41/tf.math.add_208/Add/y"], "device": "/device:CPU:0", "attr": {"epsilon": {"f": 0.0}, "num_host_args": {"i": "0"}, "explicit_paddings": {"list": {}}, "use_cudnn_on_gpu": {"b": true}, "strides": {"list": {"i": ["1", "1", "1", "1"]}}, "num_args": {"i": "1"}, "T": {"type": "DT_FLOAT"}, "padding": {"s": "U0FNRQ=="}, "filter_format": {"s": "SFdJTw=="}, "dilations": {"list": {"i": ["1", "1", "1", "1"]}}, "data_format": {"s": "TkhXQw=="}, "fused_ops": {"list": {"s": ["Qmlhc0FkZA=="]}}, "leakyrelu_alpha": {"f": 0.2}, "TArgs": {"list": {"type": ["DT_FLOAT"]}}}}, {"name": "model_41/tf.math.sigmoid_156/Sigmoid", "op": "Sigmoid", "input": ["model_41/tf.math.add_206/Add"], "attr": {"T": {"type": "DT_FLOAT"}}}, {"name": "model_41/tf.concat_54/concat", "op": "ConcatV2", "input": ["model_41/tf.math.add_207/Add", "model_41/tf.math.add_208/Add", "model_41/tf.concat_54/concat/axis"], "attr": {"T": {"type": "DT_FLOAT"}, "Tidx": {"type": "DT_INT32"}, "N": {"i": "2"}}}, {"name": "model_41/tf.math.multiply_681/Mul", "op": "Mul", "input": ["model_41/tf.math.add_206/Add", "model_41/tf.math.sigmoid_156/Sigmoid"], "attr": {"T": {"type": "DT_FLOAT"}}}, {"name": "model_41/tf.compat.v1.transpose_58/transpose", "op": "Transpose", "input": ["model_41/tf.concat_54/concat", "model_41/tf.compat.v1.transpose_58/transpose/perm"], "attr": {"T": {"type": "DT_FLOAT"}, "Tperm": {"type": "DT_INT32"}}}, {"name": "model_41/tf.strided_slice_52/StridedSlice", "op": "StridedSlice", "input": ["model_41/tf.math.multiply_681/Mul", "model_41/tf.strided_slice_52/ones_like/tensor", "model_41/tf.strided_slice_52/StridedSlice/end", "model_41/tf.strided_slice_52/ones_like"], "attr": {"shrink_axis_mask": {"i": "0"}, "ellipsis_mask": {"i": "0"}, "end_mask": {"i": "7"}, "Index": {"type": "DT_INT64"}, "new_axis_mask": {"i": "0"}, "T": {"type": "DT_FLOAT"}, "begin_mask": {"i": "15"}}}, {"name": "model_41/tf.strided_slice_53/StridedSlice", "op": "StridedSlice", "input": ["model_41/tf.math.multiply_681/Mul", "model_41/tf.strided_slice_53/ones_like/tensor", "model_41/tf.strided_slice_53/StridedSlice/end", "model_41/tf.strided_slice_53/ones_like"], "attr": {"shrink_axis_mask": {"i": "0"}, "new_axis_mask": {"i": "0"}, "end_mask": {"i": "7"}, "T": {"type": "DT_FLOAT"}, "Index": {"type": "DT_INT64"}, "begin_mask": {"i": "7"}, "ellipsis_mask": {"i": "0"}}}, {"name": "model_41/tf.reshape_32/Reshape", "op": "Reshape", "input": ["model_41/tf.compat.v1.transpose_58/transpose", "model_41/tf.reshape_32/Reshape/shape"], "attr": {"T": {"type": "DT_FLOAT"}, "Tshape": {"type": "DT_INT32"}}}, {"name": "model_41/tf.math.add_209/Add", "op": "_FusedConv2D", "input": ["model_41/tf.strided_slice_53/StridedSlice", "model_41/tf.nn.convolution_171/convolution/filter", "model_41/tf.math.add_209/Add/y"], "device": "/device:CPU:0", "attr": {"leakyrelu_alpha": {"f": 0.2}, "use_cudnn_on_gpu": {"b": true}, "filter_format": {"s": "SFdJTw=="}, "padding": {"s": "U0FNRQ=="}, "T": {"type": "DT_FLOAT"}, "TArgs": {"list": {"type": ["DT_FLOAT"]}}, "num_host_args": {"i": "0"}, "data_format": {"s": "TkhXQw=="}, "explicit_paddings": {"list": {}}, "num_args": {"i": "1"}, "strides": {"list": {"i": ["1", "1", "1", "1"]}}, "epsilon": {"f": 0.0}, "dilations": {"list": {"i": ["1", "1", "1", "1"]}}, "fused_ops": {"list": {"s": ["Qmlhc0FkZA=="]}}}}, {"name": "model_41/tf.math.sigmoid_157/Sigmoid", "op": "Sigmoid", "input": ["model_41/tf.math.add_209/Add"], "attr": {"T": {"type": "DT_FLOAT"}}}, {"name": "model_41/tf.math.multiply_685/Mul", "op": "Mul", "input": ["model_41/tf.math.add_209/Add", "model_41/tf.math.sigmoid_157/Sigmoid"], "attr": {"T": {"type": "DT_FLOAT"}}}, {"name": "model_41/tf.math.add_210/Add", "op": "_FusedConv2D", "input": ["model_41/tf.math.multiply_685/Mul", "model_41/tf.nn.convolution_172/convolution/filter", "model_41/tf.math.add_210/Add/y"], "device": "/device:CPU:0", "attr": {"filter_format": {"s": "SFdJTw=="}, "padding": {"s": "U0FNRQ=="}, "num_host_args": {"i": "0"}, "use_cudnn_on_gpu": {"b": true}, "leakyrelu_alpha": {"f": 0.2}, "dilations": {"list": {"i": ["1", "1", "1", "1"]}}, "epsilon": {"f": 0.0}, "num_args": {"i": "1"}, "explicit_paddings": {"list": {}}, "strides": {"list": {"i": ["1", "1", "1", "1"]}}, "fused_ops": {"list": {"s": ["Qmlhc0FkZA=="]}}, "TArgs": {"list": {"type": ["DT_FLOAT"]}}, "data_format": {"s": "TkhXQw=="}, "T": {"type": "DT_FLOAT"}}}, {"name": "model_41/tf.math.sigmoid_158/Sigmoid", "op": "Sigmoid", "input": ["model_41/tf.math.add_210/Add"], "attr": {"T": {"type": "DT_FLOAT"}}}, {"name": "model_41/tf.math.multiply_689/Mul", "op": "Mul", "input": ["model_41/tf.math.add_210/Add", "model_41/tf.math.sigmoid_158/Sigmoid"], "attr": {"T": {"type": "DT_FLOAT"}}}, {"name": "model_41/tf.concat_55/concat", "op": "ConcatV2", "input": ["model_41/tf.strided_slice_52/StridedSlice", "model_41/tf.strided_slice_53/StridedSlice", "model_41/tf.math.multiply_689/Mul", "model_41/tf.concat_55/concat/axis"], "attr": {"T": {"type": "DT_FLOAT"}, "N": {"i": "3"}, "Tidx": {"type": "DT_INT32"}}}, {"name": "model_41/tf.math.add_211/Add", "op": "_FusedConv2D", "input": ["model_41/tf.concat_55/concat", "model_41/tf.nn.convolution_173/convolution/filter", "model_41/tf.math.add_211/Add/y"], "device": "/device:CPU:0", "attr": {"fused_ops": {"list": {"s": ["Qmlhc0FkZA=="]}}, "dilations": {"list": {"i": ["1", "1", "1", "1"]}}, "TArgs": {"list": {"type": ["DT_FLOAT"]}}, "explicit_paddings": {"list": {}}, "epsilon": {"f": 0.0}, "num_host_args": {"i": "0"}, "use_cudnn_on_gpu": {"b": true}, "strides": {"list": {"i": ["1", "1", "1", "1"]}}, "num_args": {"i": "1"}, "leakyrelu_alpha": {"f": 0.2}, "filter_format": {"s": "SFdJTw=="}, "T": {"type": "DT_FLOAT"}, "data_format": {"s": "TkhXQw=="}, "padding": {"s": "U0FNRQ=="}}}, {"name": "model_41/tf.math.sigmoid_159/Sigmoid", "op": "Sigmoid", "input": ["model_41/tf.math.add_211/Add"], "attr": {"T": {"type": "DT_FLOAT"}}}, {"name": "model_41/tf.math.multiply_693/Mul", "op": "Mul", "input": ["model_41/tf.math.add_211/Add", "model_41/tf.math.sigmoid_159/Sigmoid"], "attr": {"T": {"type": "DT_FLOAT"}}}, {"name": "model_41/tf.math.add_213/Add", "op": "_FusedConv2D", "input": ["model_41/tf.math.multiply_693/Mul", "model_41/tf.nn.convolution_175/convolution/filter", "model_41/tf.math.add_213/Add/y"], "device": "/device:CPU:0", "attr": {"padding": {"s": "U0FNRQ=="}, "leakyrelu_alpha": {"f": 0.2}, "filter_format": {"s": "SFdJTw=="}, "fused_ops": {"list": {"s": ["Qmlhc0FkZA=="]}}, "epsilon": {"f": 0.0}, "explicit_paddings": {"list": {}}, "data_format": {"s": "TkhXQw=="}, "TArgs": {"list": {"type": ["DT_FLOAT"]}}, "num_host_args": {"i": "0"}, "strides": {"list": {"i": ["1", "1", "1", "1"]}}, "dilations": {"list": {"i": ["1", "1", "1", "1"]}}, "use_cudnn_on_gpu": {"b": true}, "T": {"type": "DT_FLOAT"}, "num_args": {"i": "1"}}}, {"name": "model_41/tf.math.add_214/Add", "op": "_FusedConv2D", "input": ["model_41/tf.math.multiply_693/Mul", "model_41/tf.nn.convolution_176/convolution/filter", "model_41/tf.math.add_214/Add/y"], "device": "/device:CPU:0", "attr": {"filter_format": {"s": "SFdJTw=="}, "num_args": {"i": "1"}, "TArgs": {"list": {"type": ["DT_FLOAT"]}}, "explicit_paddings": {"list": {}}, "epsilon": {"f": 0.0}, "dilations": {"list": {"i": ["1", "1", "1", "1"]}}, "leakyrelu_alpha": {"f": 0.2}, "T": {"type": "DT_FLOAT"}, "fused_ops": {"list": {"s": ["Qmlhc0FkZA=="]}}, "data_format": {"s": "TkhXQw=="}, "use_cudnn_on_gpu": {"b": true}, "num_host_args": {"i": "0"}, "strides": {"list": {"i": ["1", "1", "1", "1"]}}, "padding": {"s": "U0FNRQ=="}}}, {"name": "model_41/tf.compat.v1.pad_20/Pad", "op": "Pad", "input": ["model_41/tf.math.multiply_693/Mul", "model_41/tf.compat.v1.pad_20/Pad/paddings"], "attr": {"Tpaddings": {"type": "DT_INT32"}, "T": {"type": "DT_FLOAT"}}}, {"name": "model_41/tf.math.sigmoid_161/Sigmoid", "op": "Sigmoid", "input": ["model_41/tf.math.add_213/Add"], "attr": {"T": {"type": "DT_FLOAT"}}}, {"name": "model_41/tf.math.sigmoid_162/Sigmoid", "op": "Sigmoid", "input": ["model_41/tf.math.add_214/Add"], "attr": {"T": {"type": "DT_FLOAT"}}}, {"name": "model_41/tf.math.add_212/Add", "op": "_FusedConv2D", "input": ["model_41/tf.compat.v1.pad_20/Pad", "model_41/tf.nn.convolution_174/convolution/filter", "model_41/tf.math.add_212/Add/y"], "device": "/device:CPU:0", "attr": {"leakyrelu_alpha": {"f": 0.2}, "explicit_paddings": {"list": {}}, "TArgs": {"list": {"type": ["DT_FLOAT"]}}, "num_args": {"i": "1"}, "padding": {"s": "VkFMSUQ="}, "use_cudnn_on_gpu": {"b": true}, "epsilon": {"f": 0.0}, "strides": {"list": {"i": ["1", "2", "2", "1"]}}, "data_format": {"s": "TkhXQw=="}, "fused_ops": {"list": {"s": ["Qmlhc0FkZA=="]}}, "filter_format": {"s": "SFdJTw=="}, "num_host_args": {"i": "0"}, "dilations": {"list": {"i": ["1", "1", "1", "1"]}}, "T": {"type": "DT_FLOAT"}}}, {"name": "model_41/tf.math.multiply_701/Mul", "op": "Mul", "input": ["model_41/tf.math.add_213/Add", "model_41/tf.math.sigmoid_161/Sigmoid"], "attr": {"T": {"type": "DT_FLOAT"}}}, {"name": "model_41/tf.math.multiply_705/Mul", "op": "Mul", "input": ["model_41/tf.math.add_214/Add", "model_41/tf.math.sigmoid_162/Sigmoid"], "attr": {"T": {"type": "DT_FLOAT"}}}, {"name": "model_41/tf.math.sigmoid_160/Sigmoid", "op": "Sigmoid", "input": ["model_41/tf.math.add_212/Add"], "attr": {"T": {"type": "DT_FLOAT"}}}, {"name": "model_41/tf.math.add_215/Add", "op": "_FusedConv2D", "input": ["model_41/tf.math.multiply_701/Mul", "model_41/tf.nn.convolution_177/convolution/filter", "model_41/tf.math.add_215/Add/y"], "device": "/device:CPU:0", "attr": {"dilations": {"list": {"i": ["1", "1", "1", "1"]}}, "explicit_paddings": {"list": {}}, "num_host_args": {"i": "0"}, "epsilon": {"f": 0.0}, "T": {"type": "DT_FLOAT"}, "TArgs": {"list": {"type": ["DT_FLOAT"]}}, "padding": {"s": "U0FNRQ=="}, "strides": {"list": {"i": ["1", "1", "1", "1"]}}, "fused_ops": {"list": {"s": ["Qmlhc0FkZA=="]}}, "num_args": {"i": "1"}, "filter_format": {"s": "SFdJTw=="}, "use_cudnn_on_gpu": {"b": true}, "data_format": {"s": "TkhXQw=="}, "leakyrelu_alpha": {"f": 0.2}}}, {"name": "model_41/tf.math.add_216/Add", "op": "_FusedConv2D", "input": ["model_41/tf.math.multiply_705/Mul", "model_41/tf.nn.convolution_178/convolution/filter", "model_41/tf.math.add_216/Add/y"], "device": "/device:CPU:0", "attr": {"padding": {"s": "U0FNRQ=="}, "num_args": {"i": "1"}, "TArgs": {"list": {"type": ["DT_FLOAT"]}}, "explicit_paddings": {"list": {}}, "epsilon": {"f": 0.0}, "data_format": {"s": "TkhXQw=="}, "filter_format": {"s": "SFdJTw=="}, "T": {"type": "DT_FLOAT"}, "leakyrelu_alpha": {"f": 0.2}, "dilations": {"list": {"i": ["1", "1", "1", "1"]}}, "strides": {"list": {"i": ["1", "1", "1", "1"]}}, "use_cudnn_on_gpu": {"b": true}, "num_host_args": {"i": "0"}, "fused_ops": {"list": {"s": ["Qmlhc0FkZA=="]}}}}, {"name": "model_41/tf.math.multiply_697/Mul", "op": "Mul", "input": ["model_41/tf.math.add_212/Add", "model_41/tf.math.sigmoid_160/Sigmoid"], "attr": {"T": {"type": "DT_FLOAT"}}}, {"name": "model_41/tf.math.sigmoid_163/Sigmoid", "op": "Sigmoid", "input": ["model_41/tf.math.add_215/Add"], "attr": {"T": {"type": "DT_FLOAT"}}}, {"name": "model_41/tf.math.sigmoid_164/Sigmoid", "op": "Sigmoid", "input": ["model_41/tf.math.add_216/Add"], "attr": {"T": {"type": "DT_FLOAT"}}}, {"name": "model_41/tf.concat_56/concat", "op": "ConcatV2", "input": ["model_41/tf.math.multiply_697/Mul", "model_41/tf.math.multiply_625/Mul", "model_41/tf.concat_56/concat/axis"], "attr": {"N": {"i": "2"}, "T": {"type": "DT_FLOAT"}, "Tidx": {"type": "DT_INT32"}}}, {"name": "model_41/tf.math.multiply_709/Mul", "op": "Mul", "input": ["model_41/tf.math.add_215/Add", "model_41/tf.math.sigmoid_163/Sigmoid"], "attr": {"T": {"type": "DT_FLOAT"}}}, {"name": "model_41/tf.math.multiply_713/Mul", "op": "Mul", "input": ["model_41/tf.math.add_216/Add", "model_41/tf.math.sigmoid_164/Sigmoid"], "attr": {"T": {"type": "DT_FLOAT"}}}, {"name": "model_41/tf.math.add_217/Add", "op": "_FusedConv2D", "input": ["model_41/tf.concat_56/concat", "model_41/tf.nn.convolution_179/convolution/filter", "model_41/tf.math.add_217/Add/y"], "device": "/device:CPU:0", "attr": {"use_cudnn_on_gpu": {"b": true}, "TArgs": {"list": {"type": ["DT_FLOAT"]}}, "explicit_paddings": {"list": {}}, "T": {"type": "DT_FLOAT"}, "strides": {"list": {"i": ["1", "1", "1", "1"]}}, "leakyrelu_alpha": {"f": 0.2}, "num_args": {"i": "1"}, "dilations": {"list": {"i": ["1", "1", "1", "1"]}}, "data_format": {"s": "TkhXQw=="}, "padding": {"s": "U0FNRQ=="}, "epsilon": {"f": 0.0}, "fused_ops": {"list": {"s": ["Qmlhc0FkZA=="]}}, "filter_format": {"s": "SFdJTw=="}, "num_host_args": {"i": "0"}}}, {"name": "model_41/tf.math.add_218/Add", "op": "_FusedConv2D", "input": ["model_41/tf.math.multiply_709/Mul", "model_41/tf.nn.convolution_180/convolution/filter", "model_41/tf.math.add_218/Add/y"], "device": "/device:CPU:0", "attr": {"fused_ops": {"list": {"s": ["Qmlhc0FkZA=="]}}, "leakyrelu_alpha": {"f": 0.2}, "num_args": {"i": "1"}, "padding": {"s": "U0FNRQ=="}, "data_format": {"s": "TkhXQw=="}, "explicit_paddings": {"list": {}}, "T": {"type": "DT_FLOAT"}, "use_cudnn_on_gpu": {"b": true}, "strides": {"list": {"i": ["1", "1", "1", "1"]}}, "filter_format": {"s": "SFdJTw=="}, "num_host_args": {"i": "0"}, "epsilon": {"f": 0.0}, "dilations": {"list": {"i": ["1", "1", "1", "1"]}}, "TArgs": {"list": {"type": ["DT_FLOAT"]}}}}, {"name": "model_41/tf.math.add_219/Add", "op": "_FusedConv2D", "input": ["model_41/tf.math.multiply_713/Mul", "model_41/tf.nn.convolution_181/convolution/filter", "model_41/tf.math.add_219/Add/y"], "device": "/device:CPU:0", "attr": {"strides": {"list": {"i": ["1", "1", "1", "1"]}}, "filter_format": {"s": "SFdJTw=="}, "T": {"type": "DT_FLOAT"}, "epsilon": {"f": 0.0}, "TArgs": {"list": {"type": ["DT_FLOAT"]}}, "explicit_paddings": {"list": {}}, "padding": {"s": "U0FNRQ=="}, "data_format": {"s": "TkhXQw=="}, "fused_ops": {"list": {"s": ["Qmlhc0FkZA=="]}}, "leakyrelu_alpha": {"f": 0.2}, "dilations": {"list": {"i": ["1", "1", "1", "1"]}}, "num_args": {"i": "1"}, "num_host_args": {"i": "0"}, "use_cudnn_on_gpu": {"b": true}}}, {"name": "model_41/tf.math.sigmoid_165/Sigmoid", "op": "Sigmoid", "input": ["model_41/tf.math.add_217/Add"], "attr": {"T": {"type": "DT_FLOAT"}}}, {"name": "model_41/tf.concat_57/concat", "op": "ConcatV2", "input": ["model_41/tf.math.add_218/Add", "model_41/tf.math.add_219/Add", "model_41/tf.concat_57/concat/axis"], "attr": {"T": {"type": "DT_FLOAT"}, "N": {"i": "2"}, "Tidx": {"type": "DT_INT32"}}}, {"name": "model_41/tf.math.multiply_717/Mul", "op": "Mul", "input": ["model_41/tf.math.add_217/Add", "model_41/tf.math.sigmoid_165/Sigmoid"], "attr": {"T": {"type": "DT_FLOAT"}}}, {"name": "model_41/tf.compat.v1.transpose_63/transpose", "op": "Transpose", "input": ["model_41/tf.concat_57/concat", "model_41/tf.compat.v1.transpose_63/transpose/perm"], "attr": {"Tperm": {"type": "DT_INT32"}, "T": {"type": "DT_FLOAT"}}}, {"name": "model_41/tf.strided_slice_54/StridedSlice", "op": "StridedSlice", "input": ["model_41/tf.math.multiply_717/Mul", "model_41/tf.strided_slice_54/ones_like/tensor", "model_41/tf.strided_slice_54/StridedSlice/end", "model_41/tf.strided_slice_54/ones_like"], "attr": {"T": {"type": "DT_FLOAT"}, "shrink_axis_mask": {"i": "0"}, "end_mask": {"i": "7"}, "ellipsis_mask": {"i": "0"}, "new_axis_mask": {"i": "0"}, "Index": {"type": "DT_INT64"}, "begin_mask": {"i": "15"}}}, {"name": "model_41/tf.strided_slice_55/StridedSlice", "op": "StridedSlice", "input": ["model_41/tf.math.multiply_717/Mul", "model_41/tf.strided_slice_55/ones_like/tensor", "model_41/tf.strided_slice_55/StridedSlice/end", "model_41/tf.strided_slice_55/ones_like"], "attr": {"end_mask": {"i": "7"}, "ellipsis_mask": {"i": "0"}, "T": {"type": "DT_FLOAT"}, "Index": {"type": "DT_INT64"}, "begin_mask": {"i": "7"}, "new_axis_mask": {"i": "0"}, "shrink_axis_mask": {"i": "0"}}}, {"name": "model_41/tf.reshape_35/Reshape", "op": "Reshape", "input": ["model_41/tf.compat.v1.transpose_63/transpose", "model_41/tf.reshape_35/Reshape/shape"], "attr": {"Tshape": {"type": "DT_INT32"}, "T": {"type": "DT_FLOAT"}}}, {"name": "model_41/tf.math.add_220/Add", "op": "_FusedConv2D", "input": ["model_41/tf.strided_slice_55/StridedSlice", "model_41/tf.nn.convolution_182/convolution/filter", "model_41/tf.math.add_220/Add/y"], "device": "/device:CPU:0", "attr": {"T": {"type": "DT_FLOAT"}, "explicit_paddings": {"list": {}}, "use_cudnn_on_gpu": {"b": true}, "TArgs": {"list": {"type": ["DT_FLOAT"]}}, "dilations": {"list": {"i": ["1", "1", "1", "1"]}}, "num_host_args": {"i": "0"}, "filter_format": {"s": "SFdJTw=="}, "padding": {"s": "U0FNRQ=="}, "data_format": {"s": "TkhXQw=="}, "leakyrelu_alpha": {"f": 0.2}, "fused_ops": {"list": {"s": ["Qmlhc0FkZA=="]}}, "strides": {"list": {"i": ["1", "1", "1", "1"]}}, "epsilon": {"f": 0.0}, "num_args": {"i": "1"}}}, {"name": "model_41/tf.math.sigmoid_166/Sigmoid", "op": "Sigmoid", "input": ["model_41/tf.math.add_220/Add"], "attr": {"T": {"type": "DT_FLOAT"}}}, {"name": "model_41/tf.math.multiply_721/Mul", "op": "Mul", "input": ["model_41/tf.math.add_220/Add", "model_41/tf.math.sigmoid_166/Sigmoid"], "attr": {"T": {"type": "DT_FLOAT"}}}, {"name": "model_41/tf.math.add_221/Add", "op": "_FusedConv2D", "input": ["model_41/tf.math.multiply_721/Mul", "model_41/tf.nn.convolution_183/convolution/filter", "model_41/tf.math.add_221/Add/y"], "device": "/device:CPU:0", "attr": {"epsilon": {"f": 0.0}, "dilations": {"list": {"i": ["1", "1", "1", "1"]}}, "use_cudnn_on_gpu": {"b": true}, "padding": {"s": "U0FNRQ=="}, "fused_ops": {"list": {"s": ["Qmlhc0FkZA=="]}}, "T": {"type": "DT_FLOAT"}, "filter_format": {"s": "SFdJTw=="}, "TArgs": {"list": {"type": ["DT_FLOAT"]}}, "leakyrelu_alpha": {"f": 0.2}, "data_format": {"s": "TkhXQw=="}, "explicit_paddings": {"list": {}}, "strides": {"list": {"i": ["1", "1", "1", "1"]}}, "num_args": {"i": "1"}, "num_host_args": {"i": "0"}}}, {"name": "model_41/tf.math.sigmoid_167/Sigmoid", "op": "Sigmoid", "input": ["model_41/tf.math.add_221/Add"], "attr": {"T": {"type": "DT_FLOAT"}}}, {"name": "model_41/tf.math.multiply_725/Mul", "op": "Mul", "input": ["model_41/tf.math.add_221/Add", "model_41/tf.math.sigmoid_167/Sigmoid"], "attr": {"T": {"type": "DT_FLOAT"}}}, {"name": "model_41/tf.concat_58/concat", "op": "ConcatV2", "input": ["model_41/tf.strided_slice_54/StridedSlice", "model_41/tf.strided_slice_55/StridedSlice", "model_41/tf.math.multiply_725/Mul", "model_41/tf.concat_58/concat/axis"], "attr": {"Tidx": {"type": "DT_INT32"}, "N": {"i": "3"}, "T": {"type": "DT_FLOAT"}}}, {"name": "model_41/tf.math.add_222/Add", "op": "_FusedConv2D", "input": ["model_41/tf.concat_58/concat", "model_41/tf.nn.convolution_184/convolution/filter", "model_41/tf.math.add_222/Add/y"], "device": "/device:CPU:0", "attr": {"leakyrelu_alpha": {"f": 0.2}, "num_args": {"i": "1"}, "padding": {"s": "U0FNRQ=="}, "strides": {"list": {"i": ["1", "1", "1", "1"]}}, "dilations": {"list": {"i": ["1", "1", "1", "1"]}}, "data_format": {"s": "TkhXQw=="}, "use_cudnn_on_gpu": {"b": true}, "num_host_args": {"i": "0"}, "T": {"type": "DT_FLOAT"}, "epsilon": {"f": 0.0}, "fused_ops": {"list": {"s": ["Qmlhc0FkZA=="]}}, "TArgs": {"list": {"type": ["DT_FLOAT"]}}, "filter_format": {"s": "SFdJTw=="}, "explicit_paddings": {"list": {}}}}, {"name": "model_41/tf.math.sigmoid_168/Sigmoid", "op": "Sigmoid", "input": ["model_41/tf.math.add_222/Add"], "attr": {"T": {"type": "DT_FLOAT"}}}, {"name": "model_41/tf.math.multiply_729/Mul", "op": "Mul", "input": ["model_41/tf.math.add_222/Add", "model_41/tf.math.sigmoid_168/Sigmoid"], "attr": {"T": {"type": "DT_FLOAT"}}}, {"name": "model_41/tf.math.add_223/Add", "op": "_FusedConv2D", "input": ["model_41/tf.math.multiply_729/Mul", "model_41/tf.nn.convolution_185/convolution/filter", "model_41/tf.math.add_223/Add/y"], "device": "/device:CPU:0", "attr": {"TArgs": {"list": {"type": ["DT_FLOAT"]}}, "explicit_paddings": {"list": {}}, "num_args": {"i": "1"}, "T": {"type": "DT_FLOAT"}, "strides": {"list": {"i": ["1", "1", "1", "1"]}}, "num_host_args": {"i": "0"}, "data_format": {"s": "TkhXQw=="}, "dilations": {"list": {"i": ["1", "1", "1", "1"]}}, "filter_format": {"s": "SFdJTw=="}, "fused_ops": {"list": {"s": ["Qmlhc0FkZA=="]}}, "leakyrelu_alpha": {"f": 0.2}, "epsilon": {"f": 0.0}, "use_cudnn_on_gpu": {"b": true}, "padding": {"s": "U0FNRQ=="}}}, {"name": "model_41/tf.math.add_224/Add", "op": "_FusedConv2D", "input": ["model_41/tf.math.multiply_729/Mul", "model_41/tf.nn.convolution_186/convolution/filter", "model_41/tf.math.add_224/Add/y"], "device": "/device:CPU:0", "attr": {"filter_format": {"s": "SFdJTw=="}, "use_cudnn_on_gpu": {"b": true}, "num_args": {"i": "1"}, "TArgs": {"list": {"type": ["DT_FLOAT"]}}, "data_format": {"s": "TkhXQw=="}, "dilations": {"list": {"i": ["1", "1", "1", "1"]}}, "T": {"type": "DT_FLOAT"}, "strides": {"list": {"i": ["1", "1", "1", "1"]}}, "epsilon": {"f": 0.0}, "num_host_args": {"i": "0"}, "leakyrelu_alpha": {"f": 0.2}, "padding": {"s": "U0FNRQ=="}, "explicit_paddings": {"list": {}}, "fused_ops": {"list": {"s": ["Qmlhc0FkZA=="]}}}}, {"name": "model_41/tf.math.sigmoid_169/Sigmoid", "op": "Sigmoid", "input": ["model_41/tf.math.add_223/Add"], "attr": {"T": {"type": "DT_FLOAT"}}}, {"name": "model_41/tf.math.sigmoid_170/Sigmoid", "op": "Sigmoid", "input": ["model_41/tf.math.add_224/Add"], "attr": {"T": {"type": "DT_FLOAT"}}}, {"name": "model_41/tf.math.multiply_733/Mul", "op": "Mul", "input": ["model_41/tf.math.add_223/Add", "model_41/tf.math.sigmoid_169/Sigmoid"], "attr": {"T": {"type": "DT_FLOAT"}}}, {"name": "model_41/tf.math.multiply_737/Mul", "op": "Mul", "input": ["model_41/tf.math.add_224/Add", "model_41/tf.math.sigmoid_170/Sigmoid"], "attr": {"T": {"type": "DT_FLOAT"}}}, {"name": "model_41/tf.math.add_225/Add", "op": "_FusedConv2D", "input": ["model_41/tf.math.multiply_733/Mul", "model_41/tf.nn.convolution_187/convolution/filter", "model_41/tf.math.add_225/Add/y"], "device": "/device:CPU:0", "attr": {"explicit_paddings": {"list": {}}, "data_format": {"s": "TkhXQw=="}, "leakyrelu_alpha": {"f": 0.2}, "num_args": {"i": "1"}, "num_host_args": {"i": "0"}, "TArgs": {"list": {"type": ["DT_FLOAT"]}}, "strides": {"list": {"i": ["1", "1", "1", "1"]}}, "epsilon": {"f": 0.0}, "filter_format": {"s": "SFdJTw=="}, "dilations": {"list": {"i": ["1", "1", "1", "1"]}}, "T": {"type": "DT_FLOAT"}, "use_cudnn_on_gpu": {"b": true}, "padding": {"s": "U0FNRQ=="}, "fused_ops": {"list": {"s": ["Qmlhc0FkZA=="]}}}}, {"name": "model_41/tf.math.add_226/Add", "op": "_FusedConv2D", "input": ["model_41/tf.math.multiply_737/Mul", "model_41/tf.nn.convolution_188/convolution/filter", "model_41/tf.math.add_226/Add/y"], "device": "/device:CPU:0", "attr": {"fused_ops": {"list": {"s": ["Qmlhc0FkZA=="]}}, "dilations": {"list": {"i": ["1", "1", "1", "1"]}}, "data_format": {"s": "TkhXQw=="}, "filter_format": {"s": "SFdJTw=="}, "explicit_paddings": {"list": {}}, "padding": {"s": "U0FNRQ=="}, "T": {"type": "DT_FLOAT"}, "TArgs": {"list": {"type": ["DT_FLOAT"]}}, "num_args": {"i": "1"}, "use_cudnn_on_gpu": {"b": true}, "num_host_args": {"i": "0"}, "leakyrelu_alpha": {"f": 0.2}, "epsilon": {"f": 0.0}, "strides": {"list": {"i": ["1", "1", "1", "1"]}}}}, {"name": "model_41/tf.math.sigmoid_171/Sigmoid", "op": "Sigmoid", "input": ["model_41/tf.math.add_225/Add"], "attr": {"T": {"type": "DT_FLOAT"}}}, {"name": "model_41/tf.math.sigmoid_172/Sigmoid", "op": "Sigmoid", "input": ["model_41/tf.math.add_226/Add"], "attr": {"T": {"type": "DT_FLOAT"}}}, {"name": "model_41/tf.math.multiply_741/Mul", "op": "Mul", "input": ["model_41/tf.math.add_225/Add", "model_41/tf.math.sigmoid_171/Sigmoid"], "attr": {"T": {"type": "DT_FLOAT"}}}, {"name": "model_41/tf.math.multiply_745/Mul", "op": "Mul", "input": ["model_41/tf.math.add_226/Add", "model_41/tf.math.sigmoid_172/Sigmoid"], "attr": {"T": {"type": "DT_FLOAT"}}}, {"name": "model_41/tf.math.add_227/Add", "op": "_FusedConv2D", "input": ["model_41/tf.math.multiply_741/Mul", "model_41/tf.nn.convolution_189/convolution/filter", "model_41/tf.math.add_227/Add/y"], "device": "/device:CPU:0", "attr": {"T": {"type": "DT_FLOAT"}, "num_host_args": {"i": "0"}, "filter_format": {"s": "SFdJTw=="}, "explicit_paddings": {"list": {}}, "use_cudnn_on_gpu": {"b": true}, "dilations": {"list": {"i": ["1", "1", "1", "1"]}}, "padding": {"s": "U0FNRQ=="}, "fused_ops": {"list": {"s": ["Qmlhc0FkZA=="]}}, "strides": {"list": {"i": ["1", "1", "1", "1"]}}, "num_args": {"i": "1"}, "leakyrelu_alpha": {"f": 0.2}, "data_format": {"s": "TkhXQw=="}, "epsilon": {"f": 0.0}, "TArgs": {"list": {"type": ["DT_FLOAT"]}}}}, {"name": "model_41/tf.math.add_228/Add", "op": "_FusedConv2D", "input": ["model_41/tf.math.multiply_745/Mul", "model_41/tf.nn.convolution_190/convolution/filter", "model_41/tf.math.add_228/Add/y"], "device": "/device:CPU:0", "attr": {"epsilon": {"f": 0.0}, "fused_ops": {"list": {"s": ["Qmlhc0FkZA=="]}}, "strides": {"list": {"i": ["1", "1", "1", "1"]}}, "data_format": {"s": "TkhXQw=="}, "padding": {"s": "U0FNRQ=="}, "leakyrelu_alpha": {"f": 0.2}, "filter_format": {"s": "SFdJTw=="}, "dilations": {"list": {"i": ["1", "1", "1", "1"]}}, "num_args": {"i": "1"}, "T": {"type": "DT_FLOAT"}, "num_host_args": {"i": "0"}, "use_cudnn_on_gpu": {"b": true}, "explicit_paddings": {"list": {}}, "TArgs": {"list": {"type": ["DT_FLOAT"]}}}}, {"name": "model_41/tf.concat_59/concat", "op": "ConcatV2", "input": ["model_41/tf.math.add_227/Add", "model_41/tf.math.add_228/Add", "model_41/tf.concat_59/concat/axis"], "attr": {"Tidx": {"type": "DT_INT32"}, "N": {"i": "2"}, "T": {"type": "DT_FLOAT"}}}, {"name": "model_41/tf.compat.v1.transpose_68/transpose", "op": "Transpose", "input": ["model_41/tf.concat_59/concat", "model_41/tf.compat.v1.transpose_68/transpose/perm"], "attr": {"T": {"type": "DT_FLOAT"}, "Tperm": {"type": "DT_INT32"}}}, {"name": "model_41/tf.reshape_38/Reshape", "op": "Reshape", "input": ["model_41/tf.compat.v1.transpose_68/transpose", "model_41/tf.reshape_38/Reshape/shape"], "attr": {"T": {"type": "DT_FLOAT"}, "Tshape": {"type": "DT_INT32"}}}, {"name": "model_41/tf.concat_60/concat", "op": "ConcatV2", "input": ["model_41/tf.reshape_32/Reshape", "model_41/tf.reshape_35/Reshape", "model_41/tf.reshape_38/Reshape", "model_41/tf.concat_60/concat/axis"], "attr": {"N": {"i": "3"}, "Tidx": {"type": "DT_INT32"}, "T": {"type": "DT_FLOAT"}}}, {"name": "model_41/tf.strided_slice_57/StridedSlice", "op": "StridedSlice", "input": ["model_41/tf.concat_60/concat", "model_41/tf.strided_slice_57/StridedSlice/begin", "model_41/tf.strided_slice_57/StridedSlice/end", "model_41/tf.strided_slice_57/StridedSlice/strides"], "attr": {"end_mask": {"i": "5"}, "new_axis_mask": {"i": "0"}, "begin_mask": {"i": "5"}, "T": {"type": "DT_FLOAT"}, "shrink_axis_mask": {"i": "0"}, "Index": {"type": "DT_INT64"}, "ellipsis_mask": {"i": "0"}}}, {"name": "model_41/tf.strided_slice_56/StridedSlice", "op": "StridedSlice", "input": ["model_41/tf.concat_60/concat", "model_41/tf.strided_slice_56/StridedSlice/begin", "model_41/tf.strided_slice_56/StridedSlice/end", "model_41/tf.strided_slice_56/StridedSlice/strides"], "attr": {"ellipsis_mask": {"i": "0"}, "end_mask": {"i": "5"}, "shrink_axis_mask": {"i": "0"}, "T": {"type": "DT_FLOAT"}, "Index": {"type": "DT_INT64"}, "new_axis_mask": {"i": "0"}, "begin_mask": {"i": "7"}}}, {"name": "model_41/tf.math.sigmoid_173/Sigmoid", "op": "Sigmoid", "input": ["model_41/tf.strided_slice_57/StridedSlice"], "attr": {"T": {"type": "DT_FLOAT"}}}, {"name": "model_41/tf.reshape_41/Reshape", "op": "Reshape", "input": ["model_41/tf.strided_slice_56/StridedSlice", "model_41/tf.reshape_41/Reshape/shape"], "attr": {"Tshape": {"type": "DT_INT32"}, "T": {"type": "DT_FLOAT"}}}, {"name": "model_41/tf.compat.v1.transpose_75/transpose", "op": "Transpose", "input": ["model_41/tf.reshape_41/Reshape", "model_41/tf.compat.v1.transpose_75/transpose/perm"], "attr": {"T": {"type": "DT_FLOAT"}, "Tperm": {"type": "DT_INT32"}}}, {"name": "model_41/tf.compat.v1.transpose_76/transpose", "op": "Transpose", "input": ["model_41/tf.compat.v1.transpose_75/transpose", "model_41/tf.compat.v1.transpose_76/transpose/perm"], "attr": {"T": {"type": "DT_FLOAT"}, "Tperm": {"type": "DT_INT32"}}}, {"name": "model_41/tf.nn.softmax_2//model.22/dfl/Softmax", "op": "Softmax", "input": ["model_41/tf.compat.v1.transpose_76/transpose"], "attr": {"T": {"type": "DT_FLOAT"}}}, {"name": "model_41/tf.nn.convolution_191/convolution", "op": "Conv2D", "input": ["model_41/tf.nn.softmax_2//model.22/dfl/Softmax", "model_41/tf.nn.convolution_191/convolution/filter"], "device": "/device:CPU:0", "attr": {"data_format": {"s": "TkhXQw=="}, "explicit_paddings": {"list": {}}, "dilations": {"list": {"i": ["1", "1", "1", "1"]}}, "T": {"type": "DT_FLOAT"}, "padding": {"s": "U0FNRQ=="}, "strides": {"list": {"i": ["1", "1", "1", "1"]}}, "use_cudnn_on_gpu": {"b": true}}}, {"name": "model_41/tf.compat.v1.transpose_81/transpose", "op": "Transpose", "input": ["model_41/tf.nn.convolution_191/convolution", "model_41/tf.compat.v1.transpose_81/transpose/perm"], "attr": {"Tperm": {"type": "DT_INT32"}, "T": {"type": "DT_FLOAT"}}}, {"name": "model_41/tf.reshape_44/Reshape", "op": "Reshape", "input": ["model_41/tf.compat.v1.transpose_81/transpose", "model_41/tf.reshape_44/Reshape/shape"], "attr": {"T": {"type": "DT_FLOAT"}, "Tshape": {"type": "DT_INT32"}}}, {"name": "model_41/tf.strided_slice_59/StridedSlice", "op": "StridedSlice", "input": ["model_41/tf.reshape_44/Reshape", "model_41/tf.strided_slice_59/ones_like/tensor", "model_41/tf.strided_slice_59/StridedSlice/end", "model_41/tf.strided_slice_59/ones_like"], "attr": {"begin_mask": {"i": "5"}, "ellipsis_mask": {"i": "0"}, "Index": {"type": "DT_INT64"}, "shrink_axis_mask": {"i": "0"}, "T": {"type": "DT_FLOAT"}, "new_axis_mask": {"i": "0"}, "end_mask": {"i": "5"}}}, {"name": "model_41/tf.strided_slice_58/StridedSlice", "op": "StridedSlice", "input": ["model_41/tf.reshape_44/Reshape", "model_41/tf.strided_slice_58/ones_like/tensor", "model_41/tf.strided_slice_58/StridedSlice/end", "model_41/tf.strided_slice_58/ones_like"], "attr": {"shrink_axis_mask": {"i": "0"}, "ellipsis_mask": {"i": "0"}, "new_axis_mask": {"i": "0"}, "end_mask": {"i": "5"}, "T": {"type": "DT_FLOAT"}, "begin_mask": {"i": "7"}, "Index": {"type": "DT_INT64"}}}, {"name": "model_41/tf.math.add_229/Add", "op": "AddV2", "input": ["model_41/39371", "model_41/tf.strided_slice_59/StridedSlice"], "attr": {"T": {"type": "DT_FLOAT"}}}, {"name": "model_41/tf.math.subtract_4/Sub", "op": "Sub", "input": ["model_41/39374", "model_41/tf.strided_slice_58/StridedSlice"], "attr": {"T": {"type": "DT_FLOAT"}}}, {"name": "model_41/tf.math.add_230/Add", "op": "AddV2", "input": ["model_41/tf.math.subtract_4/Sub", "model_41/tf.math.add_229/Add"], "attr": {"T": {"type": "DT_FLOAT"}}}, {"name": "model_41/tf.math.subtract_5/Sub", "op": "Sub", "input": ["model_41/tf.math.add_229/Add", "model_41/tf.math.subtract_4/Sub"], "attr": {"T": {"type": "DT_FLOAT"}}}, {"name": "model_41/tf.math.divide_2/truediv", "op": "Mul", "input": ["model_41/tf.math.add_230/Add", "ConstantFolding/model_41/tf.math.divide_2/truediv_recip"], "attr": {"T": {"type": "DT_FLOAT"}}}, {"name": "model_41/tf.concat_64/concat", "op": "ConcatV2", "input": ["model_41/tf.math.divide_2/truediv", "model_41/tf.math.subtract_5/Sub", "model_41/tf.concat_64/concat/axis"], "attr": {"Tidx": {"type": "DT_INT32"}, "N": {"i": "2"}, "T": {"type": "DT_FLOAT"}}}, {"name": "model_41/tf.math.multiply_758/Mul", "op": "Mul", "input": ["model_41/tf.concat_64/concat", "model_41/tf.math.multiply_758/Mul/y"], "attr": {"T": {"type": "DT_FLOAT"}}}, {"name": "model_41/output0/concat", "op": "ConcatV2", "input": ["model_41/tf.math.multiply_758/Mul", "model_41/tf.math.sigmoid_173/Sigmoid", "model_41/output0/concat/axis"], "attr": {"T": {"type": "DT_FLOAT"}, "N": {"i": "2"}, "Tidx": {"type": "DT_INT32"}}}, {"name": "Identity", "op": "Identity", "input": ["model_41/output0/concat"], "attr": {"T": {"type": "DT_FLOAT"}}}], "library": {}, "versions": {"producer": 1994}}, "weightsManifest": [{"paths": ["group1-shard1of3.bin", "group1-shard2of3.bin", "group1-shard3of3.bin"], "weights": [{"name": "ConstantFolding/model_41/tf.math.divide_2/truediv_recip", "shape": [1, 1, 1], "dtype": "float32"}, {"name": "model_41/39371", "shape": [1, 2, 8400], "dtype": "float32"}, {"name": "model_41/tf.strided_slice_59/ones_like/tensor", "shape": [3], "dtype": "int32"}, {"name": "model_41/tf.strided_slice_59/StridedSlice/end", "shape": [3], "dtype": "int32"}, {"name": "model_41/tf.strided_slice_59/ones_like", "shape": [3], "dtype": "int32"}, {"name": "model_41/39374", "shape": [1, 2, 8400], "dtype": "float32"}, {"name": "model_41/tf.strided_slice_56/StridedSlice/begin", "shape": [3], "dtype": "int32"}, {"name": "model_41/tf.strided_slice_56/StridedSlice/end", "shape": [3], "dtype": "int32"}, {"name": "model_41/tf.strided_slice_56/StridedSlice/strides", "shape": [3], "dtype": "int32"}, {"name": "model_41/tf.reshape_41/Reshape/shape", "shape": [4], "dtype": "int32"}, {"name": "model_41/tf.compat.v1.transpose_75/transpose/perm", "shape": [4], "dtype": "int32"}, {"name": "model_41/tf.compat.v1.transpose_76/transpose/perm", "shape": [4], "dtype": "int32"}, {"name": "model_41/tf.nn.convolution_191/convolution/filter", "shape": [1, 1, 16, 1], "dtype": "float32"}, {"name": "model_41/tf.compat.v1.transpose_81/transpose/perm", "shape": [4], "dtype": "int32"}, {"name": "model_41/tf.reshape_44/Reshape/shape", "shape": [3], "dtype": "int32"}, {"name": "model_41/tf.strided_slice_58/ones_like/tensor", "shape": [3], "dtype": "int32"}, {"name": "model_41/tf.strided_slice_58/StridedSlice/end", "shape": [3], "dtype": "int32"}, {"name": "model_41/tf.strided_slice_58/ones_like", "shape": [3], "dtype": "int32"}, {"name": "model_41/tf.concat_64/concat/axis", "shape": [], "dtype": "int32"}, {"name": "model_41/tf.math.multiply_758/Mul/y", "shape": [1, 1, 8400], "dtype": "float32"}, {"name": "model_41/tf.nn.convolution_164/convolution/filter", "shape": [3, 3, 64, 64], "dtype": "float32"}, {"name": "model_41/tf.math.add_202/Add/y", "shape": [64], "dtype": "float32"}, {"name": "model_41/tf.nn.convolution_166/convolution/filter", "shape": [3, 3, 64, 64], "dtype": "float32"}, {"name": "model_41/tf.math.add_204/Add/y", "shape": [64], "dtype": "float32"}, {"name": "model_41/tf.nn.convolution_169/convolution/filter", "shape": [1, 1, 64, 64], "dtype": "float32"}, {"name": "model_41/tf.math.add_207/Add/y", "shape": [64], "dtype": "float32"}, {"name": "model_41/tf.nn.convolution_165/convolution/filter", "shape": [3, 3, 64, 64], "dtype": "float32"}, {"name": "model_41/tf.math.add_203/Add/y", "shape": [64], "dtype": "float32"}, {"name": "model_41/tf.nn.convolution_167/convolution/filter", "shape": [3, 3, 64, 64], "dtype": "float32"}, {"name": "model_41/tf.math.add_205/Add/y", "shape": [64], "dtype": "float32"}, {"name": "model_41/tf.nn.convolution_170/convolution/filter", "shape": [1, 1, 64, 50], "dtype": "float32"}, {"name": "model_41/tf.math.add_208/Add/y", "shape": [50], "dtype": "float32"}, {"name": "model_41/tf.concat_54/concat/axis", "shape": [], "dtype": "int32"}, {"name": "model_41/tf.compat.v1.transpose_58/transpose/perm", "shape": [4], "dtype": "int32"}, {"name": "model_41/tf.reshape_32/Reshape/shape", "shape": [3], "dtype": "int32"}, {"name": "model_41/tf.nn.convolution_175/convolution/filter", "shape": [3, 3, 128, 64], "dtype": "float32"}, {"name": "model_41/tf.math.add_213/Add/y", "shape": [64], "dtype": "float32"}, {"name": "model_41/tf.nn.convolution_177/convolution/filter", "shape": [3, 3, 64, 64], "dtype": "float32"}, {"name": "model_41/tf.math.add_215/Add/y", "shape": [64], "dtype": "float32"}, {"name": "model_41/tf.nn.convolution_180/convolution/filter", "shape": [1, 1, 64, 64], "dtype": "float32"}, {"name": "model_41/tf.math.add_218/Add/y", "shape": [64], "dtype": "float32"}, {"name": "model_41/tf.nn.convolution_176/convolution/filter", "shape": [3, 3, 128, 64], "dtype": "float32"}, {"name": "model_41/tf.math.add_214/Add/y", "shape": [64], "dtype": "float32"}, {"name": "model_41/tf.nn.convolution_178/convolution/filter", "shape": [3, 3, 64, 64], "dtype": "float32"}, {"name": "model_41/tf.math.add_216/Add/y", "shape": [64], "dtype": "float32"}, {"name": "model_41/tf.nn.convolution_181/convolution/filter", "shape": [1, 1, 64, 50], "dtype": "float32"}, {"name": "model_41/tf.math.add_219/Add/y", "shape": [50], "dtype": "float32"}, {"name": "model_41/tf.concat_57/concat/axis", "shape": [], "dtype": "int32"}, {"name": "model_41/tf.compat.v1.transpose_63/transpose/perm", "shape": [4], "dtype": "int32"}, {"name": "model_41/tf.reshape_35/Reshape/shape", "shape": [3], "dtype": "int32"}, {"name": "model_41/tf.nn.convolution_185/convolution/filter", "shape": [3, 3, 256, 64], "dtype": "float32"}, {"name": "model_41/tf.math.add_223/Add/y", "shape": [64], "dtype": "float32"}, {"name": "model_41/tf.nn.convolution_187/convolution/filter", "shape": [3, 3, 64, 64], "dtype": "float32"}, {"name": "model_41/tf.math.add_225/Add/y", "shape": [64], "dtype": "float32"}, {"name": "model_41/tf.nn.convolution_189/convolution/filter", "shape": [1, 1, 64, 64], "dtype": "float32"}, {"name": "model_41/tf.math.add_227/Add/y", "shape": [64], "dtype": "float32"}, {"name": "model_41/tf.strided_slice_54/ones_like/tensor", "shape": [4], "dtype": "int32"}, {"name": "model_41/tf.strided_slice_54/StridedSlice/end", "shape": [4], "dtype": "int32"}, {"name": "model_41/tf.strided_slice_54/ones_like", "shape": [4], "dtype": "int32"}, {"name": "model_41/tf.strided_slice_52/ones_like/tensor", "shape": [4], "dtype": "int32"}, {"name": "model_41/tf.strided_slice_52/StridedSlice/end", "shape": [4], "dtype": "int32"}, {"name": "model_41/tf.strided_slice_52/ones_like", "shape": [4], "dtype": "int32"}, {"name": "model_41/tf.strided_slice_50/ones_like/tensor", "shape": [4], "dtype": "int32"}, {"name": "model_41/tf.strided_slice_50/StridedSlice/end", "shape": [4], "dtype": "int32"}, {"name": "model_41/tf.strided_slice_50/ones_like", "shape": [4], "dtype": "int32"}, {"name": "model_41/tf.image.resize_5/resize/size", "shape": [2], "dtype": "int32"}, {"name": "model_41/tf.concat_51/concat/axis", "shape": [], "dtype": "int32"}, {"name": "model_41/tf.nn.convolution_159/convolution/filter", "shape": [1, 1, 192, 64], "dtype": "float32"}, {"name": "model_41/tf.math.add_197/Add/y", "shape": [64], "dtype": "float32"}, {"name": "model_41/tf.strided_slice_51/ones_like/tensor", "shape": [4], "dtype": "int32"}, {"name": "model_41/tf.strided_slice_51/StridedSlice/end", "shape": [4], "dtype": "int32"}, {"name": "model_41/tf.strided_slice_51/ones_like", "shape": [4], "dtype": "int32"}, {"name": "model_41/tf.nn.convolution_160/convolution/filter", "shape": [3, 3, 32, 32], "dtype": "float32"}, {"name": "model_41/tf.math.add_198/Add/y", "shape": [32], "dtype": "float32"}, {"name": "model_41/tf.nn.convolution_161/convolution/filter", "shape": [3, 3, 32, 32], "dtype": "float32"}, {"name": "model_41/tf.math.add_199/Add/y", "shape": [32], "dtype": "float32"}, {"name": "model_41/tf.concat_52/concat/axis", "shape": [], "dtype": "int32"}, {"name": "model_41/tf.nn.convolution_162/convolution/filter", "shape": [1, 1, 96, 64], "dtype": "float32"}, {"name": "model_41/tf.math.add_200/Add/y", "shape": [64], "dtype": "float32"}, {"name": "model_41/tf.compat.v1.pad_19/Pad/paddings", "shape": [4, 2], "dtype": "int32"}, {"name": "model_41/tf.nn.convolution_163/convolution/filter", "shape": [3, 3, 64, 64], "dtype": "float32"}, {"name": "model_41/tf.math.add_201/Add/y", "shape": [64], "dtype": "float32"}, {"name": "model_41/tf.strided_slice_48/ones_like/tensor", "shape": [4], "dtype": "int32"}, {"name": "model_41/tf.strided_slice_48/StridedSlice/end", "shape": [4], "dtype": "int32"}, {"name": "model_41/tf.strided_slice_48/ones_like", "shape": [4], "dtype": "int32"}, {"name": "model_41/tf.image.resize_4/resize/size", "shape": [2], "dtype": "int32"}, {"name": "model_41/tf.concat_49/concat/axis", "shape": [], "dtype": "int32"}, {"name": "model_41/tf.nn.convolution_155/convolution/filter", "shape": [1, 1, 384, 128], "dtype": "float32"}, {"name": "model_41/tf.math.add_193/Add/y", "shape": [128], "dtype": "float32"}, {"name": "model_41/tf.strided_slice_49/ones_like/tensor", "shape": [4], "dtype": "int32"}, {"name": "model_41/tf.strided_slice_49/StridedSlice/end", "shape": [4], "dtype": "int32"}, {"name": "model_41/tf.strided_slice_49/ones_like", "shape": [4], "dtype": "int32"}, {"name": "model_41/tf.nn.convolution_156/convolution/filter", "shape": [3, 3, 64, 64], "dtype": "float32"}, {"name": "model_41/tf.math.add_194/Add/y", "shape": [64], "dtype": "float32"}, {"name": "model_41/tf.nn.convolution_157/convolution/filter", "shape": [3, 3, 64, 64], "dtype": "float32"}, {"name": "model_41/tf.math.add_195/Add/y", "shape": [64], "dtype": "float32"}, {"name": "model_41/tf.concat_50/concat/axis", "shape": [], "dtype": "int32"}, {"name": "model_41/tf.nn.convolution_158/convolution/filter", "shape": [1, 1, 192, 128], "dtype": "float32"}, {"name": "model_41/tf.math.add_196/Add/y", "shape": [128], "dtype": "float32"}, {"name": "model_41/tf.concat_53/concat/axis", "shape": [], "dtype": "int32"}, {"name": "model_41/tf.nn.convolution_168/convolution/filter", "shape": [1, 1, 192, 128], "dtype": "float32"}, {"name": "model_41/tf.math.add_206/Add/y", "shape": [128], "dtype": "float32"}, {"name": "model_41/tf.strided_slice_53/ones_like/tensor", "shape": [4], "dtype": "int32"}, {"name": "model_41/tf.strided_slice_53/StridedSlice/end", "shape": [4], "dtype": "int32"}, {"name": "model_41/tf.strided_slice_53/ones_like", "shape": [4], "dtype": "int32"}, {"name": "model_41/tf.nn.convolution_171/convolution/filter", "shape": [3, 3, 64, 64], "dtype": "float32"}, {"name": "model_41/tf.math.add_209/Add/y", "shape": [64], "dtype": "float32"}, {"name": "model_41/tf.nn.convolution_172/convolution/filter", "shape": [3, 3, 64, 64], "dtype": "float32"}, {"name": "model_41/tf.math.add_210/Add/y", "shape": [64], "dtype": "float32"}, {"name": "model_41/tf.concat_55/concat/axis", "shape": [], "dtype": "int32"}, {"name": "model_41/tf.nn.convolution_173/convolution/filter", "shape": [1, 1, 192, 128], "dtype": "float32"}, {"name": "model_41/tf.math.add_211/Add/y", "shape": [128], "dtype": "float32"}, {"name": "model_41/tf.compat.v1.pad_20/Pad/paddings", "shape": [4, 2], "dtype": "int32"}, {"name": "model_41/tf.nn.convolution_174/convolution/filter", "shape": [3, 3, 128, 128], "dtype": "float32"}, {"name": "model_41/tf.math.add_212/Add/y", "shape": [128], "dtype": "float32"}, {"name": "model_41/tf.strided_slice_46/ones_like/tensor", "shape": [4], "dtype": "int32"}, {"name": "model_41/tf.strided_slice_46/StridedSlice/end", "shape": [4], "dtype": "int32"}, {"name": "model_41/tf.strided_slice_46/ones_like", "shape": [4], "dtype": "int32"}, {"name": "model_41/tf.strided_slice_44/ones_like/tensor", "shape": [4], "dtype": "int32"}, {"name": "model_41/tf.strided_slice_44/StridedSlice/end", "shape": [4], "dtype": "int32"}, {"name": "model_41/tf.strided_slice_44/ones_like", "shape": [4], "dtype": "int32"}, {"name": "model_41/tf.strided_slice_42/ones_like/tensor", "shape": [4], "dtype": "int32"}, {"name": "model_41/tf.strided_slice_42/StridedSlice/end", "shape": [4], "dtype": "int32"}, {"name": "model_41/tf.strided_slice_42/ones_like", "shape": [4], "dtype": "int32"}, {"name": "model_41/tf.strided_slice_40/ones_like/tensor", "shape": [4], "dtype": "int32"}, {"name": "model_41/tf.strided_slice_40/StridedSlice/end", "shape": [4], "dtype": "int32"}, {"name": "model_41/tf.strided_slice_40/ones_like", "shape": [4], "dtype": "int32"}, {"name": "model_41/tf.compat.v1.pad_14/Pad/paddings", "shape": [4, 2], "dtype": "int32"}, {"name": "model_41/tf.nn.convolution_128/convolution/filter", "shape": [3, 3, 3, 16], "dtype": "float32"}, {"name": "model_41/tf.math.add_154/Add/y", "shape": [16], "dtype": "float32"}, {"name": "model_41/tf.compat.v1.pad_15/Pad/paddings", "shape": [4, 2], "dtype": "int32"}, {"name": "model_41/tf.nn.convolution_129/convolution/filter", "shape": [3, 3, 16, 32], "dtype": "float32"}, {"name": "model_41/tf.math.add_155/Add/y", "shape": [32], "dtype": "float32"}, {"name": "model_41/tf.nn.convolution_130/convolution/filter", "shape": [1, 1, 32, 32], "dtype": "float32"}, {"name": "model_41/tf.math.add_156/Add/y", "shape": [32], "dtype": "float32"}, {"name": "model_41/tf.strided_slice_41/ones_like/tensor", "shape": [4], "dtype": "int32"}, {"name": "model_41/tf.strided_slice_41/StridedSlice/end", "shape": [4], "dtype": "int32"}, {"name": "model_41/tf.strided_slice_41/ones_like", "shape": [4], "dtype": "int32"}, {"name": "model_41/tf.nn.convolution_131/convolution/filter", "shape": [3, 3, 16, 16], "dtype": "float32"}, {"name": "model_41/tf.math.add_157/Add/y", "shape": [16], "dtype": "float32"}, {"name": "model_41/tf.nn.convolution_132/convolution/filter", "shape": [3, 3, 16, 16], "dtype": "float32"}, {"name": "model_41/tf.math.add_158/Add/y", "shape": [16], "dtype": "float32"}, {"name": "model_41/tf.concat_44/concat/axis", "shape": [], "dtype": "int32"}, {"name": "model_41/tf.nn.convolution_133/convolution/filter", "shape": [1, 1, 48, 32], "dtype": "float32"}, {"name": "model_41/tf.math.add_161/Add/y", "shape": [32], "dtype": "float32"}, {"name": "model_41/tf.compat.v1.pad_16/Pad/paddings", "shape": [4, 2], "dtype": "int32"}, {"name": "model_41/tf.nn.convolution_134/convolution/filter", "shape": [3, 3, 32, 64], "dtype": "float32"}, {"name": "model_41/tf.math.add_162/Add/y", "shape": [64], "dtype": "float32"}, {"name": "model_41/tf.nn.convolution_135/convolution/filter", "shape": [1, 1, 64, 64], "dtype": "float32"}, {"name": "model_41/tf.math.add_163/Add/y", "shape": [64], "dtype": "float32"}, {"name": "model_41/tf.strided_slice_43/ones_like/tensor", "shape": [4], "dtype": "int32"}, {"name": "model_41/tf.strided_slice_43/StridedSlice/end", "shape": [4], "dtype": "int32"}, {"name": "model_41/tf.strided_slice_43/ones_like", "shape": [4], "dtype": "int32"}, {"name": "model_41/tf.nn.convolution_136/convolution/filter", "shape": [3, 3, 32, 32], "dtype": "float32"}, {"name": "model_41/tf.math.add_164/Add/y", "shape": [32], "dtype": "float32"}, {"name": "model_41/tf.nn.convolution_137/convolution/filter", "shape": [3, 3, 32, 32], "dtype": "float32"}, {"name": "model_41/tf.math.add_165/Add/y", "shape": [32], "dtype": "float32"}, {"name": "model_41/tf.nn.convolution_138/convolution/filter", "shape": [3, 3, 32, 32], "dtype": "float32"}, {"name": "model_41/tf.math.add_168/Add/y", "shape": [32], "dtype": "float32"}, {"name": "model_41/tf.nn.convolution_139/convolution/filter", "shape": [3, 3, 32, 32], "dtype": "float32"}, {"name": "model_41/tf.math.add_169/Add/y", "shape": [32], "dtype": "float32"}, {"name": "model_41/tf.concat_45/concat/axis", "shape": [], "dtype": "int32"}, {"name": "model_41/tf.nn.convolution_140/convolution/filter", "shape": [1, 1, 128, 64], "dtype": "float32"}, {"name": "model_41/tf.math.add_172/Add/y", "shape": [64], "dtype": "float32"}, {"name": "model_41/tf.compat.v1.pad_17/Pad/paddings", "shape": [4, 2], "dtype": "int32"}, {"name": "model_41/tf.nn.convolution_141/convolution/filter", "shape": [3, 3, 64, 128], "dtype": "float32"}, {"name": "model_41/tf.math.add_173/Add/y", "shape": [128], "dtype": "float32"}, {"name": "model_41/tf.nn.convolution_142/convolution/filter", "shape": [1, 1, 128, 128], "dtype": "float32"}, {"name": "model_41/tf.math.add_174/Add/y", "shape": [128], "dtype": "float32"}, {"name": "model_41/tf.strided_slice_45/ones_like/tensor", "shape": [4], "dtype": "int32"}, {"name": "model_41/tf.strided_slice_45/StridedSlice/end", "shape": [4], "dtype": "int32"}, {"name": "model_41/tf.strided_slice_45/ones_like", "shape": [4], "dtype": "int32"}, {"name": "model_41/tf.nn.convolution_143/convolution/filter", "shape": [3, 3, 64, 64], "dtype": "float32"}, {"name": "model_41/tf.math.add_175/Add/y", "shape": [64], "dtype": "float32"}, {"name": "model_41/tf.nn.convolution_144/convolution/filter", "shape": [3, 3, 64, 64], "dtype": "float32"}, {"name": "model_41/tf.math.add_176/Add/y", "shape": [64], "dtype": "float32"}, {"name": "model_41/tf.nn.convolution_145/convolution/filter", "shape": [3, 3, 64, 64], "dtype": "float32"}, {"name": "model_41/tf.math.add_179/Add/y", "shape": [64], "dtype": "float32"}, {"name": "model_41/tf.nn.convolution_146/convolution/filter", "shape": [3, 3, 64, 64], "dtype": "float32"}, {"name": "model_41/tf.math.add_180/Add/y", "shape": [64], "dtype": "float32"}, {"name": "model_41/tf.concat_46/concat/axis", "shape": [], "dtype": "int32"}, {"name": "model_41/tf.nn.convolution_147/convolution/filter", "shape": [1, 1, 256, 128], "dtype": "float32"}, {"name": "model_41/tf.math.add_183/Add/y", "shape": [128], "dtype": "float32"}, {"name": "model_41/tf.compat.v1.pad_18/Pad/paddings", "shape": [4, 2], "dtype": "int32"}, {"name": "model_41/tf.nn.convolution_148/convolution/filter", "shape": [3, 3, 128, 256], "dtype": "float32"}, {"name": "model_41/tf.math.add_184/Add/y", "shape": [256], "dtype": "float32"}, {"name": "model_41/tf.nn.convolution_149/convolution/filter", "shape": [1, 1, 256, 256], "dtype": "float32"}, {"name": "model_41/tf.math.add_185/Add/y", "shape": [256], "dtype": "float32"}, {"name": "model_41/tf.strided_slice_47/ones_like/tensor", "shape": [4], "dtype": "int32"}, {"name": "model_41/tf.strided_slice_47/StridedSlice/end", "shape": [4], "dtype": "int32"}, {"name": "model_41/tf.strided_slice_47/ones_like", "shape": [4], "dtype": "int32"}, {"name": "model_41/tf.nn.convolution_150/convolution/filter", "shape": [3, 3, 128, 128], "dtype": "float32"}, {"name": "model_41/tf.math.add_186/Add/y", "shape": [128], "dtype": "float32"}, {"name": "model_41/tf.nn.convolution_151/convolution/filter", "shape": [3, 3, 128, 128], "dtype": "float32"}, {"name": "model_41/tf.math.add_187/Add/y", "shape": [128], "dtype": "float32"}, {"name": "model_41/tf.concat_47/concat/axis", "shape": [], "dtype": "int32"}, {"name": "model_41/tf.nn.convolution_152/convolution/filter", "shape": [1, 1, 384, 256], "dtype": "float32"}, {"name": "model_41/tf.math.add_190/Add/y", "shape": [256], "dtype": "float32"}, {"name": "model_41/tf.nn.convolution_153/convolution/filter", "shape": [1, 1, 256, 128], "dtype": "float32"}, {"name": "model_41/tf.math.add_191/Add/y", "shape": [128], "dtype": "float32"}, {"name": "model_41/tf.concat_48/concat/axis", "shape": [], "dtype": "int32"}, {"name": "model_41/tf.nn.convolution_154/convolution/filter", "shape": [1, 1, 512, 256], "dtype": "float32"}, {"name": "model_41/tf.math.add_192/Add/y", "shape": [256], "dtype": "float32"}, {"name": "model_41/tf.concat_56/concat/axis", "shape": [], "dtype": "int32"}, {"name": "model_41/tf.nn.convolution_179/convolution/filter", "shape": [1, 1, 384, 256], "dtype": "float32"}, {"name": "model_41/tf.math.add_217/Add/y", "shape": [256], "dtype": "float32"}, {"name": "model_41/tf.strided_slice_55/ones_like/tensor", "shape": [4], "dtype": "int32"}, {"name": "model_41/tf.strided_slice_55/StridedSlice/end", "shape": [4], "dtype": "int32"}, {"name": "model_41/tf.strided_slice_55/ones_like", "shape": [4], "dtype": "int32"}, {"name": "model_41/tf.nn.convolution_182/convolution/filter", "shape": [3, 3, 128, 128], "dtype": "float32"}, {"name": "model_41/tf.math.add_220/Add/y", "shape": [128], "dtype": "float32"}, {"name": "model_41/tf.nn.convolution_183/convolution/filter", "shape": [3, 3, 128, 128], "dtype": "float32"}, {"name": "model_41/tf.math.add_221/Add/y", "shape": [128], "dtype": "float32"}, {"name": "model_41/tf.concat_58/concat/axis", "shape": [], "dtype": "int32"}, {"name": "model_41/tf.nn.convolution_184/convolution/filter", "shape": [1, 1, 384, 256], "dtype": "float32"}, {"name": "model_41/tf.math.add_222/Add/y", "shape": [256], "dtype": "float32"}, {"name": "model_41/tf.nn.convolution_186/convolution/filter", "shape": [3, 3, 256, 64], "dtype": "float32"}, {"name": "model_41/tf.math.add_224/Add/y", "shape": [64], "dtype": "float32"}, {"name": "model_41/tf.nn.convolution_188/convolution/filter", "shape": [3, 3, 64, 64], "dtype": "float32"}, {"name": "model_41/tf.math.add_226/Add/y", "shape": [64], "dtype": "float32"}, {"name": "model_41/tf.nn.convolution_190/convolution/filter", "shape": [1, 1, 64, 50], "dtype": "float32"}, {"name": "model_41/tf.math.add_228/Add/y", "shape": [50], "dtype": "float32"}, {"name": "model_41/tf.concat_59/concat/axis", "shape": [], "dtype": "int32"}, {"name": "model_41/tf.compat.v1.transpose_68/transpose/perm", "shape": [4], "dtype": "int32"}, {"name": "model_41/tf.reshape_38/Reshape/shape", "shape": [3], "dtype": "int32"}, {"name": "model_41/tf.concat_60/concat/axis", "shape": [], "dtype": "int32"}, {"name": "model_41/tf.strided_slice_57/StridedSlice/begin", "shape": [3], "dtype": "int32"}, {"name": "model_41/tf.strided_slice_57/StridedSlice/end", "shape": [3], "dtype": "int32"}, {"name": "model_41/tf.strided_slice_57/StridedSlice/strides", "shape": [3], "dtype": "int32"}, {"name": "model_41/output0/concat/axis", "shape": [], "dtype": "int32"}]}]}